gnn_ik_checkpoints/gnnik-epoch=016-val_loss=0.0025.ckpt (torch, 230285 bytes, 36 tensors)

lin_in.weight f4 [64, 9]
0	0x3d9f3a19	0.07774753
1	0xbe5fddb6	-0.2186192
2	0xbe19bd04	-0.1501351
3	0xbc74cc75	-0.0149413245
4	0x3ea1a1e9	0.3156884
5	0xbe7cd649	-0.24691118
6	0x3e47d314	0.19514114
7	0xbe38e6a3	-0.18056731
8	0x3dfd4d0b	0.123682104
9	0x3dd26b67	0.102743916
10	0x3e280a5d	0.16410203
11	0xbead4579	-0.33842066
12	0xbdc33819	-0.09532184
13	0xbe34f747	-0.17672454
14	0x3e812d9e	0.25230116
15	0xbe663fa6	-0.22485217
16	0xbd50b737	-0.050955977
17	0x3e38f7a3	0.18063216
18	0xbe365141	-0.17804433
19	0x3e7656d3	0.24056558
20	0xbda6caab	-0.081441246
21	0x3e08d5b5	0.13362773
22	0x3eb2be29	0.34910706
23	0xbe5f3b66	-0.21800002
24	0xbdf06889	-0.117386885
25	0xbe46361f	-0.19356583
26	0xbd93b321	-0.072119005
27	0xbea2d85a	-0.31805688
28	0x3d812eda	0.06307764
29	0x3c4860c4	0.012230102
30	0x3e7c6471	0.2464769
31	0x3e7e6fa9	0.24847282
32	0xbe3537ad	-0.1769702
33	0x3e8442de	0.25832266
34	0xbd8f4f72	-0.06997575
35	0xbe182e42	-0.14861396
36	0x3e3a5ade	0.18198726
37	0xbe445b6a	-0.19175497
38	0x3d55fc05	0.052242298
39	0x3e895321	0.26821235
40	0x3d5abaf9	0.053400967
41	0xbea513c9	-0.32241657
42	0x3d8f15d3	0.069865845
43	0x3e75d378	0.2400645
44	0xbd851378	-0.06497854
45	0xbe19eade	-0.15031001
46	0xbd1d0f41	-0.038344625
47	0xbd9a20b4	-0.07525769
48	0xbe645b89	-0.22300543
49	0xbe4aa524	-0.19789559
50	0x3e0b607c	0.13611025
51	0xbdca6ad6	-0.098836586
52	0x3e09b526	0.13448009
53	0x3c8b45aa	0.017000992
54	0x3c6b4c4a	0.01436145
55	0x3e1a6f13	0.15081434
56	0xbe752b09	-0.23942198
57	0xbe0adbce	-0.13560411
58	0x3e35aea9	0.17742409
59	0xbe448a9a	-0.19193497
60	0xbea5b75b	-0.32366452
61	0x3df2ce51	0.11855758
62	0xbe82e6f3	-0.25566825
63	0x3eaa28d2	0.33234268
64	0xbda2f1d7	-0.079562835
65	0x3aecec54	0.0018075802
66	0xbe0d9656	-0.1382688
67	0x3e7f308e	0.24920866
68	0xbe89d1e9	-0.2691796
69	0x3ea531e2	0.3226462
70	0x3e516a25	0.20450647
71	0xbd2f33c6	-0.042773984
72	0xbcdfd88b	-0.027324935
73	0x3e16a457	0.14711128
74	0xbe76d9c9	-0.24106516
75	0xbe818fc3	-0.25304994
76	0x3ea1341a	0.31485063
77	0xbdd9141b	-0.10599538
78	0xbe295753	-0.16537218
79	0xbe179a7b	-0.14805023
80	0x3e65f5ac	0.22456998
81	0x3c5cbb7d	0.013472435
82	0x3de552ce	0.11197434
83	0x3dabe6b6	0.08393614
84	0x3e81b9c6	0.25337046
85	0x3dc47b38	0.095938146
86	0x3e954150	0.29151392
87	0x3e03c94b	0.12869756
88	0xbd8fd670	-0.070233226
89	0x3e6daa0a	0.23209396
90	0xbd6794ae	-0.056538276
91	0xbdace518	-0.08442134
92	0x3dd6ae4e	0.10482465
93	0x3e5716ca	0.21004787
94	0x3e56356c	0.20918816
95	0x3e6461c1	0.22302915
96	0xbd060021	-0.032714967
97	0x3e51c3a2	0.20484784
98	0x3e2bb866	0.16769561
99	0x3dc83e26	0.09777479
100	0x3da8a1aa	0.0823396
101	0xbe3c5b57	-0.18394218
102	0xbca0a194	-0.019608296
103	0x3e8ee97b	0.27912506
104	0x3e7f0ecf	0.24907993
105	0xbe903d2a	-0.28171664
106	0xbe356f21	-0.17718174
107	0x3e9052ca	0.28188163
108	0xbe5290b9	-0.2056302
109	0x3daa70d7	0.08322304
110	0xbe60d214	-0.21955138
111	0x3e3e9cd6	0.18614516
112	0xbe7d8803	-0.24758916
113	0x3e3c19c4	0.18369204
114	0x3c1a007d	0.0093995305
115	0x3e629bbb	0.22129719
116	0x3e81e376	0.2536885
117	0xbecd31a7	-0.40076944
118	0x3e4e06e0	0.2011981
119	0xbe4c9e86	-0.19982347
120	0x3e9f92b3	0.3116661
121	0x3d9e1e8d	0.07720671
122	0xbe0513f9	-0.129959
123	0x3e9d47b5	0.3071877
124	0x3cc085ee	0.023501363
125	0xbe37c54c	-0.17946357
126	0xbe9a1db5	-0.3010079
127	0x3de19a1a	0.11015721
128	0x3e9a6567	0.3015549
129	0xbe233e43	-0.1594172
130	0xbdeff5a7	-0.11716776
131	0xbda92e33	-0.08260765
132	0x3d9f3f4a	0.07775743
133	0x3d8a9739	0.06767125
134	0xbe9e20c0	-0.3088436
135	0x3e0d2308	0.13782895
136	0xbdaa6571	-0.0832013
137	0xbc48f6bd	-0.012265858
138	0x3e91c4ce	0.28470463
139	0x3db6bf4c	0.08923206
140	0x3e30f87f	0.17282294
141	0x3e60abd4	0.21940547
142	0xbcbc1e93	-0.022963798
143	0x3e31f755	0.17379506
144	0x3de57670	0.11204231
145	0xbdd55f2a	-0.10418542
146	0x3d553bf4	0.05205913
147	0x3ddbe0a2	0.10736205
148	0xbe8e5bb9	-0.27804354
149	0x3e29d8ea	0.16586652
150	0xbd907641	-0.07053805
151	0xbeaa1abf	-0.3322353
152	0x3c57b0c2	0.013164701
153	0xbe40c55f	-0.18825291
154	0xbc27def5	-0.010246028
155	0x3e03d96e	0.12875912
156	0xbe8720b8	-0.2639215
157	0x3e8eca9b	0.2788895
158	0xbd833fa2	-0.06408621
159	0x3e117f5c	0.1420874
160	0x3de799b6	0.11308615
161	0x3e7a1a51	0.24424101
162	0x3d9c4e75	0.07632152
163	0xbe904811	-0.28179982
164	0xbd16cfcc	-0.036819264
165	0xbd8aef69	-0.06783945
166	0x3e416276	0.18885216
167	0xbe7d51f6	-0.24738297
168	0x3d43c958	0.04779944
169	0x3e3ccd21	0.18437625
170	0xbd38809e	-0.045044534
171	0xbe18d8f5	-0.14926513
172	0x3e8a8bd5	0.27059808
173	0x3e9bd76d	0.30437794
174	0xbea67dc0	-0.32517815
175	0xbd9a2a92	-0.07527651
176	0xbe04f543	-0.12984185
177	0x3e94037d	0.2890891
178	0x3e843370	0.25820494
179	0x3e40cf80	0.18829155
180	0x3e682cc6	0.2267333
181	0xbe99fa25	-0.30073658
182	0x3e967235	0.29384008
183	0xbe69ec2f	-0.22844003
184	0x3e558c8d	0.20854397
185	0x3e7de46f	0.24794172
186	0xbe42e8b3	-0.1903408
187	0xbcdea8f2	-0.027180169
188	0xbe7e9ba0	-0.24864054
189	0x3e040daf	0.12895845
190	0x3e467064	0.19378811
191	0x3da94681	0.08265401
192	0x3e66d50d	0.2254221
193	0xbdd32371	-0.10309494
194	0xbec3144c	-0.38101423
195	0xbd2c8c4e	-0.042125992
196	0x3e8486cd	0.25884095
197	0xbd9b7bb3	-0.07591953
198	0xbeaf19e4	-0.3419944
199	0x3e7e2094	0.24817115
200	0x3dbad64f	0.09122907
201	0xbe9c9e06	-0.30589312
202	0x3e155654	0.14583713
203	0x3ea1e1b0	0.31617498
204	0xbe82e969	-0.25568703
205	0xbe713cf3	-0.23558407
206	0x3d9c10c9	0.07620389
207	0x3d890867	0.06691056
208	0xbc8d735d	-0.017266924
209	0x3dec9ed2	0.1155373
210	0x3e4b9ec7	0.19884787
211	0xbeaf89b9	-0.34284762
212	0xbe2ea834	-0.17056352
213	0x3d1b1b9d	0.03786813
214	0x3e4adfa7	0.19811879
215	0xbc1b28ed	-0.009470207
216	0xbe56ef8d	-0.20989819
217	0xbe0b6ed0	-0.1361649
218	0x3d502265	0.05081405
219	0x3e397353	0.18110399
220	0xbd45a683	-0.0482545
221	0x3ea11332	0.31459957
222	0x3e15ce7c	0.14629549
223	0x3d68b035	0.05680867
224	0x3e52027d	0.20508762
225	0x3e642457	0.22279488
226	0x3eb23982	0.348095
227	0xbd9e25ee	-0.07722078
228	0xbedf0c8b	-0.43564257
229	0x3ebc0371	0.36721376
230	0x3bb743f0	0.0055928156
231	0x3c004634	0.007829238
232	0xbda370e5	-0.07980517
233	0xbc4cbfaf	-0.012496873
234	0xbe69fe3b	-0.22850887
235	0x3eb48fd1	0.35265973
236	0xbd36d3e5	-0.044635672
237	0x3dd5545d	0.10416482
238	0xbdcf2a4f	-0.101154916
239	0xbe700221	-0.23438312
240	0x3ea2856b	0.31742415
241	0xbe96ba5e	-0.29439062
242	0xbc15545b	-0.00911435
243	0x3bd39c55	0.006457845
244	0x3e4c104c	0.19928092
245	0x3e06a911	0.13150431
246	0x3e1f41ee	0.15552494
247	0x3cb30d16	0.021856826
248	0xbd98f63f	-0.07468843
249	0xbe677a2e	-0.22605202
250	0xbc197204	-0.009365562
251	0xbd87f34d	-0.06638203
252	0xbd666cf5	-0.056256253
253	0xbe05ef1a	-0.13079491
254	0x3e4e1305	0.20124443
255	0x3dbfa449	0.09357507

lin_in.bias f4 [64]
0	0x3e0afa24	0.13571984
1	0x3dd055d5	0.10172621
2	0x3dc45b35	0.09587709
3	0x3d898857	0.06715458
4	0x3df3d5c5	0.11906008
5	0x3e7485a0	0.23879099
6	0xbe83b406	-0.25723284
7	0x3e2c59a2	0.16831067
8	0x3e118ca1	0.14213802
9	0xbd25a818	-0.04044351
10	0xbe9c6f22	-0.30553538
11	0x3dbb8724	0.091566354
12	0x3da36600	0.07978439
13	0x3e40697d	0.1879024
14	0xbe861470	-0.26187468
15	0x3e90ad34	0.28257143
16	0xbe0a7019	-0.13519324
17	0xbe722ae1	-0.2364917
18	0xbe24345a	-0.16035596
19	0xbe26161f	-0.16219376
20	0xbe569633	-0.20955734
21	0x3e6af0c9	0.22943415
22	0xbe4b43da	-0.19850102
23	0x3d3b2ba1	0.045695905
24	0xbd0114da	-0.031514026
25	0xbe847f5d	-0.2587842
26	0x3e328bde	0.17436168
27	0x3d7d03cc	0.0617712
28	0xbe823b9d	-0.25436106
29	0xbe19be96	-0.15014109
30	0x3e631160	0.22174597
31	0xbe17c1c5	-0.14820011
32	0xbe5fde07	-0.2186204
33	0xbe0dac4c	-0.13835257
34	0xbe83b57e	-0.25724405
35	0x3e70a1db	0.23499243
36	0xbda7d1aa	-0.08194287
37	0xbbf0caa6	-0.0073483763
38	0xbdebab5a	-0.11507292
39	0xbe940a0c	-0.28913915
40	0x3e06e99c	0.13175052
41	0x3d0627eb	0.032752912
42	0x3e00b860	0.12570333
43	0x3e69d172	0.22833803
44	0x3d823e3d	0.06359527
45	0xbe09c8e9	-0.13455547
46	0x3e2a714a	0.16644779
47	0xbca98654	-0.020693935
48	0xbd86e039	-0.06585736
49	0xbe0d01a9	-0.13770165
50	0xbea2929f	-0.31752488
51	0xbe0157c6	-0.12631139
52	0x3e4ce565	0.20009382
53	0xbe9a890d	-0.30182686
54	0xbea1c634	-0.3159653
55	0xbd6c71af	-0.057725605
56	0xbe008222	-0.12549642
57	0x3e8f3e51	0.2797723
58	0xbd12e948	-0.035867006
59	0x3e48513c	0.19562238
60	0xbe625c05	-0.22105415
61	0x3e8695d7	0.26286194
62	0x3e9d0812	0.3067022
63	0x3e309f0c	0.17248172

convs.0.bias f4 [64]
0	0xbb9f4ffe	-0.0048618307
1	0xbbb9468b	-0.0056541613
2	0xbc0ec723	-0.00871447
3	0xbc3a08f8	-0.011354677
4	0xbbc89f46	-0.0061225025
5	0x3ad18071	0.0015983713
6	0x00000000	0.0
7	0x3b03a507	0.0020087378
8	0xbc0f78d4	-0.008756835
9	0xbc3eaae5	-0.011637424
10	0xbb433ee4	-0.0029792124
11	0x3b4f5b74	0.0031640204
12	0xbc89e057	-0.016830606
13	0x00000000	0.0
14	0xbbbd36cb	-0.005774354
15	0xbc38bd47	-0.011275596
16	0x39aadc20	0.00032588933
17	0xbafa202d	-0.0019083075
18	0xbc31ba11	-0.010847584
19	0xbc06dea3	-0.008231792
20	0xbcc841fb	-0.024445524
21	0xbb84b583	-0.004049958
22	0xbba52790	-0.0050401166
23	0x3cbfb26b	0.023400506
24	0x3bff1d73	0.007785493
25	0x00000000	0.0
26	0xbc183937	-0.009290985
27	0x00000000	0.0
28	0x3b0ce1ff	0.002149701
29	0xbb4d1422	-0.0031292518
30	0xbb245cbe	-0.0025079693
31	0xbca01d15	-0.019545117
32	0xbbbc655a	-0.0057493867
33	0x39e097d5	0.00042837733
34	0x3cbdf585	0.023188362
35	0xbb12161b	-0.0022291008
36	0xbc33552c	-0.0109455995
37	0x3b945942	0.004527242
38	0x00000000	0.0
39	0x00000000	0.0
40	0xbbf1f295	-0.0073836544
41	0xbb2def0a	-0.0026540183
42	0xbb6e9b44	-0.0036408463
43	0xbc527558	-0.01284536
44	0xbc2f10a4	-0.01068512
45	0x3a801192	0.0009770861
46	0xbb6cc88e	-0.0036130282
47	0xbc0716bd	-0.008245167
48	0xbc1ea0d7	-0.009681902
49	0xbc6189a5	-0.013765727
50	0xbc015b01	-0.007895232
51	0xbc0069da	-0.007837737
52	0xbc36bf38	-0.011153989
53	0xbc58762d	-0.013211769
54	0xbc025f0c	-0.007957231
55	0xbbf001a6	-0.0073244153
56	0x00000000	0.0
57	0xbc3b9664	-0.01144943
58	0xbb8ab767	-0.004233289
59	0xbbf29666	-0.007403183
60	0x00000000	0.0
61	0xbb94baeb	-0.004538884
62	0xbc040836	-0.008058598
63	0xbb954ff0	-0.0045566484

convs.0.lin.weight f4 [64, 64]
0	0xbd900e71	-0.070340045
1	0x3d90d6fe	0.070722565
2	0x3e0d9979	0.13828076
3	0x3d11c720	0.03559029
4	0xbcdf35b2	-0.027247284
5	0x3c786bfc	0.015162464
6	0x3d1672b6	0.03673049
7	0xbc1e8b39	-0.009676748
8	0xbe023a13	-0.12717466
9	0xbdec5158	-0.115389526
10	0xbe06b422	-0.13154653
11	0x3ca5dc5b	0.020246675
12	0xbdbb2955	-0.09138743
13	0x3db32e1a	0.087490276
14	0xbe5c5c19	-0.21519507
15	0xbe099542	-0.13435844
16	0xbe19a038	-0.15002525
17	0x3b305d42	0.0026911055
18	0x3d8ceea8	0.068814576
19	0x3e270a20	0.16312456
20	0x3e13f2c5	0.14448078
21	0xbdb9c77b	-0.09071251
22	0x3daed0da	0.08535929
23	0x3e2e4354	0.17017871
24	0xbe1cdcfb	-0.15318672
25	0x3c5a8d5d	0.013339368
26	0x3e34c7a1	0.17654277
27	0xbe12bd2e	-0.14329979
28	0xbdfb157f	-0.122599594
29	0xbe2d0f5f	-0.16900395
30	0x3a96c819	0.0011503726
31	0x3d17ad30	0.0370304
32	0xbe325d1c	-0.17418331
33	0xbe1cccc4	-0.15312487
34	0xbd44a617	-0.048009958
35	0x3cbaee15	0.022818604
36	0x3c5a15c2	0.0133108515
37	0xbcf2863d	-0.029605025
38	0xbdbd43e1	-0.092414625
39	0x3e1e4f44	0.15459925
40	0xbd8f6be0	-0.070029974
41	0x3e39ae48	0.1813289
42	0x3e554846	0.20828351
43	0x3e00ab05	0.12565239
44	0x3e398489	0.18116964
45	0x3de1986f	0.110154025
46	0x3da7e6ef	0.08198344
47	0xbdacb308	-0.08432585
48	0x3d832ac6	0.06404643
49	0xbe025c85	-0.12730606
50	0xbd9565e7	-0.07294827
51	0x3deab9cf	0.114612214
52	0xbe12e176	-0.14343819
53	0x3e06df31	0.13171078
54	0xbd4322cc	-0.047640607
55	0xbdef78f0	-0.11692989
56	0x3e1e3e11	0.15453364
57	0xbda4a8bf	-0.08039998
58	0xbe1859d0	-0.14878011
59	0xbcc9bef8	-0.024627194
60	0xbe5f6a0d	-0.21817799
61	0xbe57970f	-0.21053718
62	0xbdcea410	-0.10089886
63	0xbe3a8e10	-0.18218255
64	0xbdeab19d	-0.11459658
65	0xbe62eebf	-0.22161387
66	0xbcde96b5	-0.027171472
67	0x3e3fc242	0.18726447
68	0xbdd4b874	-0.10386744
69	0x3def8b6b	0.11696514
70	0x3d184444	0.03717448
71	0x3d987212	0.07443632
72	0x3e431d09	0.19054045
73	0xbd268198	-0.040650934
74	0xbcff2d41	-0.031149508
75	0x3e2cad6a	0.16863027
76	0x3d3765c3	0.044774782
77	0x3de5088b	0.1118327
78	0x3e02bee9	0.12768139
79	0x3db224bb	0.08698412
80	0xbe5e6ec8	-0.21721947
81	0xbdfa9c9e	-0.122369036
82	0x3dae1b0a	0.08501251
83	0xbdcd52eb	-0.10025581
84	0x3de069bf	0.109576695
85	0x3e4da270	0.20081496
86	0xbcfc5314	-0.030801333
87	0xbe359ad3	-0.17734842
88	0xbe60f3bd	-0.21967979
89	0x3c182751	0.0092867175
90	0xbe06c0b3	-0.13159446
91	0xbe12847c	-0.14308351
92	0x3d48a0a6	0.04898133
93	0x3d40b3c7	0.04704645
94	0x3d10abd8	0.035320133
95	0xbe497f4b	-0.19677465
96	0xbd628f77	-0.0553126
97	0xbe32722a	-0.17426363
98	0xbd18e466	-0.037327193
99	0xbc224f81	-0.0099066505
100	0x3d8b0273	0.067875765
101	0xbc980f71	-0.01856205
102	0xbe20d74c	-0.15707129
103	0x3dc38e50	0.09548628
104	0x3da9589c	0.08268854
105	0x3e48c00a	0.19604507
106	0x3c8a9fea	0.016921956
107	0x3e340637	0.17580496
108	0x3cbf7a85	0.023373852
109	0xbe23eb2e	-0.16007683
110	0x3e0bd702	0.13656238
111	0x3e209290	0.15680909
112	0xbd92679e	-0.0714867
113	0xbdca0918	-0.09865016
114	0x3cf1308d	0.029442096
115	0x3de54231	0.11194266
116	0x3e57504d	0.21026726
117	0x3ba389c9	0.0049907905
118	0x3e12403a	0.14282313
119	0xbd11524d	-0.03547888
120	0x3de9c95f	0.114153616
121	0xbdb2ca2e	-0.08729969
122	0xbe40c543	-0.1882525
123	0xbdbcddd4	-0.09221998
124	0x3e1de309	0.15418638
125	0x3d6becb6	0.057598792
126	0xbb814749	-0.0039452654
127	0x3da4c525	0.08045415
128	0xbe634e19	-0.2219776
129	0xbde3538e	-0.11099921
130	0xbe31d816	-0.17367586
131	0xbe07635c	-0.13221496
132	0xbce11d60	-0.027479827
133	0x3d5938a4	0.053032532
134	0x3c6a3d6c	0.014296871
135	0x3e09d98a	0.13461891
136	0xbe01ee7d	-0.12688632
137	0xbceeae06	-0.029135715
138	0x3e4759f3	0.19467907
139	0xbde2f4c0	-0.110818386
140	0x3df41fc1	0.11920119
141	0xbe217d6f	-0.15770505
142	0xbe3b31d2	-0.18280724
143	0x3d64bd48	0.055844575
144	0x3c479e8f	0.012183799
145	0xbc897cb6	-0.0167831
146	0xbdc7d033	-0.09756508
147	0x3bb9acc3	0.0056663468
148	0x3e090b38	0.13383186
149	0xbdfb59a1	-0.12272955
150	0x3e225477	0.15852533
151	0xbd7ea9cf	-0.06217366
152	0xbca4970f	-0.020091562
153	0xbe46640c	-0.19374102
154	0x3dd4f212	0.10397734
155	0xbd7f4262	-0.062319167
156	0x3c281526	0.010258948
157	0x3d61d0e4	0.055130854
158	0xbe28a7bd	-0.16470237
159	0xbce311f3	-0.02771852
160	0x3c26002f	0.01013188
161	0xbe54a56c	-0.20766228
162	0x3e040909	0.12894072
163	0x3d3a91fb	0.045549374
164	0xbe4074ae	-0.1879451
165	0x3e16e4a5	0.14735658
166	0x3da1ed61	0.079066046
167	0xbe39555c	-0.18098968
168	0x3d921707	0.07133298
169	0xbd5c396a	-0.05376569
170	0xbe1ef61d	-0.15523572
171	0x3d52db4e	0.051478676
172	0x3cab98f9	0.020946966
173	0xbe54c6fe	-0.20779034
174	0xbe358242	-0.1772547
175	0x3e25408e	0.16137907
176	0xbe28c29a	-0.16480485
177	0x3d89ffc2	0.06738235
178	0xbd0b0f95	-0.033950407
179	0xbe038128	-0.12842238
180	0x3dc5c67b	0.09656998
181	0xbdb31c29	-0.087456055
182	0x3de99e47	0.11407142
183	0xbda575aa	-0.08079083
184	0x3e10a48c	0.1412527
185	0x3e4b6017	0.19860874
186	0xbe39a5bc	-0.18129629
187	0x3ba177f2	0.0049276287
188	0xbde33198	-0.11093444
189	0xbda5f2fd	-0.08102987
190	0xbd5499e4	-0.051904574
191	0x3ab05ac4	0.0013454785
192	0xbdc91ff4	-0.09820548
193	0x3d5a93a5	0.05336346
194	0xbe2a1414	-0.16609222
195	0x3e4e4342	0.20142844
196	0xbc170c10	-0.0092191845
197	0xbda2a064	-0.07940748
198	0x3bd139c7	0.0063850614
199	0xbe4579ee	-0.19284794
200	0xbdb6723b	-0.089085065
201	0x3e40165e	0.18758532
202	0xbd60f063	-0.05491675
203	0x3e432934	0.19058686
204	0xbcff4bc6	-0.031164061
205	0x3cfecfeb	0.031105002
206	0x3d1ffe5e	0.039060943
207	0xbd9fccbe	-0.07802723
208	0x3b4d2b10	0.0031306185
209	0x3e2aa833	0.16665725
210	0xbe1b17eb	-0.15145843
211	0xbe072665	-0.1319824
212	0xbcccff77	-0.025024159
213	0x3cad3618	0.021143958
214	0x3e0ecaab	0.13944499
215	0xbddeee2f	-0.10885274
216	0xbe24a145	-0.16077144
217	0x3dc8f887	0.09813028
218	0x3bf3a6fb	0.007435677
219	0xbdbc6bf8	-0.09200281
220	0xbccc42b9	-0.02493416
221	0xbd488745	-0.048957128
222	0xbe26e1c8	-0.16297066
223	0x3e073d7b	0.13207047
224	0xbba3d56c	-0.004999807
225	0x3e509c2c	0.20372075
226	0x3d631a96	0.055445276
227	0x3d92dd7e	0.071711525
228	0x3dba3b3a	0.09093328
229	0x3dab4dc0	0.08364439
230	0x3d81695b	0.06318923
231	0x3e04a460	0.12953329
232	0xbda7f098	-0.082001865
233	0xbe362806	-0.17788705
234	0xbd259e38	-0.040434092
235	0xbbb6d714	-0.0055798385
236	0x3d809706	0.062788054
237	0xbd86ec96	-0.06588094
238	0xbe1ec70a	-0.15505615
239	0xbe203053	-0.15643434
240	0xbd43680c	-0.04770665
241	0x3cb4e616	0.02208237
242	0xbdfec6e8	-0.12440282
243	0xbd99399b	-0.074816905
244	0xbe2b464f	-0.1672604
245	0x3df8aa8a	0.12141903
246	0xbda687ce	-0.081313714
247	0x3e1e5baa	0.15464655
248	0x3e3b869a	0.18313065
249	0x3d0b5159	0.034013126
250	0x3e59b7ab	0.2126147
251	0x3e16fb10	0.1474421
252	0xbe318745	-0.17336757
253	0x3e532c0c	0.20622271
254	0xbd93aff5	-0.072112955
255	0x39c679c8	0.00037856237

convs.1.bias f4 [64]
0	0xbc5cbfbd	-0.013473448
1	0x3b93f3ab	0.0045151315
2	0x3d0286b5	0.031866748
3	0x3b084b3c	0.0020796796
4	0xbc7ce239	-0.015434795
5	0xbc901d71	-0.017592164
6	0xbab9aa0b	-0.0014165057
7	0xbc8b77fc	-0.017024986
8	0xbc953adb	-0.018216541
9	0xbc41ec45	-0.011836116
10	0xbc1431a7	-0.009045041
11	0xbbcccb74	-0.0062498394
12	0x3b9cf49e	0.004789903
13	0xbc04ba41	-0.008101047
14	0x3612a090	2.1849155e-06
15	0xbb43af0c	-0.0029858975
16	0x3c0c97ac	0.008581083
17	0x3bb68ff6	0.0055713607
18	0xbc2bc43f	-0.0104838
19	0xbc8e17b6	-0.01734529
20	0xbc7f38c8	-0.015577503
21	0x393cdeb6	0.00018012043
22	0x3b3565ee	0.0027679163
23	0x394a147c	0.00019271852
24	0xbc2399b7	-0.009985379
25	0xbc32b567	-0.0109075075
26	0x3b2bb52b	0.0026200514
27	0x3bb859c0	0.0056259334
28	0xbc521faf	-0.012824937
29	0xba156727	-0.000569927
30	0xbccd29b1	-0.025044294
31	0xbc399502	-0.01132703
32	0x3c290d37	0.010318092
33	0xbcd96eea	-0.026542146
34	0xbca92bf2	-0.020650838
35	0x00000000	0.0
36	0xbc8b78b7	-0.017025335
37	0xbc6b9709	-0.014379271
38	0xbbb0b0d5	-0.005392174
39	0xbc735fd5	-0.014854391
40	0xbc1ef4f2	-0.009701954
41	0x3b2979df	0.0025859994
42	0x3c8c4083	0.017120605
43	0xbd229874	-0.039696172
44	0x3cf5cf0a	0.03000595
45	0xbc71f5f8	-0.014768116
46	0xbbb6464b	-0.005562579
47	0x3cb8afe1	0.022544803
48	0xbacc3e56	-0.0015582542
49	0xbcb12326	-0.021623205
50	0xbc99fdf6	-0.018797856
51	0x3b9158e0	0.0044356436
52	0xbd05032c	-0.032473728
53	0xbcde975a	-0.02717178
54	0xba8c6f01	-0.0010714234
55	0xbc800862	-0.015628997
56	0x3bb76147	0.005596313
57	0x3becda7d	0.0072281943
58	0xb78b36b4	-1.6595564e-05
59	0xba983e00	-0.0011615157
60	0x380b8208	3.3261284e-05
61	0xbca7cf0f	-0.020484475
62	0xbb419958	-0.0029540863
63	0xbc25b20f	-0.010113253

convs.1.lin.weight f4 [64, 64]
0	0xbde3c645	-0.11121801
1	0x3db16f66	0.08663826
2	0xbe19bac6	-0.15012655
3	0xbdc793b3	-0.09744968
4	0x3c83f294	0.016106881
5	0x3db05495	0.08609883
6	0xbc833d60	-0.016020477
7	0x3e0b2e82	0.1359196
8	0xbd3a59c1	-0.045495752
9	0x3e11d9ba	0.14243212
10	0xbd93ce79	-0.07217116
11	0x3d93dcf7	0.0721988
12	0x3e432173	0.19055729
13	0xbe14404c	-0.14477652
14	0xbe09d498	-0.13460004
15	0x3e1098e7	0.14120828
16	0xbdb97b3f	-0.090567105
17	0x3d6f6fe5	0.05845632
18	0xbe18fd6e	-0.14940426
19	0x3e2c541f	0.16828965
20	0xbe519a7b	-0.20469086
21	0xbd5aea5c	-0.05344616
22	0x3e0490b4	0.12945825
23	0x3e17cf2e	0.14825127
24	0x3e4d7260	0.20063162
25	0xbbb696ab	-0.0055721602
26	0x3e349dc5	0.1763831
27	0xbd996dbb	-0.074916326
28	0xbdc01ecc	-0.09380874
29	0x3c0cf4e2	0.0086033065
30	0xbd859e9a	-0.065243915
31	0x3e17975e	0.14803836
32	0x3d201e4a	0.039091386
33	0xbe6860b3	-0.22693138
34	0xbe105197	-0.14093624
35	0xbe5149f0	-0.20438361
36	0xbdfea30b	-0.12433442
37	0xbd5773a8	-0.052600533
38	0xbd23d8ab	-0.040001553
39	0x3d2880b3	0.041138362
40	0xbe5915d8	-0.21199739
41	0xbd8ba5fa	-0.06818767
42	0x3c37cc58	0.011218153
43	0x3e47bbfc	0.19505304
44	0x3dd25564	0.10270193
45	0x3d7d8d08	0.061902076
46	0xbdc79307	-0.0974484
47	0xbe139d75	-0.14415534
48	0xbd31ba91	-0.043390814
49	0xbda23ec8	-0.07922131
50	0x3bb6c997	0.0055782306
51	0xbe4fd966	-0.20297775
52	0x3d85be9c	0.065304965
53	0x3d98e9e1	0.07466484
54	0xbac59b30	-0.0015076157
55	0xbe1e5c10	-0.15464807
56	0xbe52a74a	-0.20571628
57	0x3dbb2938	0.09138721
58	0xbdd3714f	-0.10324346
59	0xbd95aef7	-0.073087625
60	0xbe17e09c	-0.14831775
61	0xbdb45d1c	-0.08806822
62	0xbdb863ae	-0.090033874
63	0x3e172307	0.14759456
64	0xbe1efe5c	-0.15526718
65	0xbb5431e3	-0.0032378368
66	0x3c221b99	0.009894275
67	0xbdf53cb5	-0.119744696
68	0xbe494a28	-0.19657195
69	0x394a3042	0.00019282199
70	0x3dadf9f1	0.08494938
71	0x3e009057	0.12555061
72	0xbe13b00f	-0.1442263
73	0x3de7e1e0	0.11322379
74	0xbe1fb93e	-0.15598008
75	0xbd958bb8	-0.0730204
76	0xbc5456e0	-0.012960166
77	0x3e4fc8ed	0.20291491
78	0xbe23606a	-0.15954748
79	0x3ceed959	0.029156374
80	0x3e46876a	0.19387594
81	0x3c9c3cc1	0.019071938
82	0x3d2c6ee3	0.042097937
83	0x3c7e4120	0.015518457
84	0x3e31bfc0	0.17358303
85	0x3e099faf	0.1343982
86	0xbe2feee9	-0.1718098
87	0x3caed5fc	0.02134227
88	0x3da11b9d	0.07866595
89	0x3e34eff2	0.17669657
90	0x3ca49f21	0.02009541
91	0xbdf02d08	-0.11727339
92	0xbe31f3b3	-0.1737812
93	0x3e1f5486	0.15559587
94	0x3d9cb1e4	0.076511174
95	0x3cafba22	0.02145106
96	0x3e1de0a3	0.15417723
97	0xbe237357	-0.15961967
98	0xbe065a90	-0.13120484
99	0xbd52cb50	-0.051463425
100	0xbd067da5	-0.032834668
101	0x3c919f32	0.017776106
102	0x3bb42f92	0.005498835
103	0x3e1a24ff	0.15053175
104	0x3e186885	0.14883621
105	0xba1b7a09	-0.00059309654
106	0x3d498030	0.049194515
107	0x3d81b923	0.0633414
108	0x3d973db5	0.073848166
109	0x3cf9f993	0.030514514
110	0x3e45d85f	0.1932082
111	0xbdaee43b	-0.08539625
112	0xbd55d484	-0.052204624
113	0xbd26e3ee	-0.040744714
114	0x3daa4a07	0.08314901
115	0xbe51afdc	-0.20477241
116	0xbe2e633d	-0.17030044
117	0xbd9d5ee4	-0.076841146
118	0xbdc5ace1	-0.09652115
119	0x3e0d7667	0.13814698
120	0xbe5698f4	-0.20956784
121	0xbde1132c	-0.10989985
122	0xbd38d419	-0.045124147
123	0x3e59d1cd	0.21271439
124	0xbd9f2b67	-0.0777195
125	0x3d53373c	0.051566347
126	0x3d02b730	0.031912982
127	0x3e08ff35	0.13378604
128	0xbc8f4989	-0.017491119
129	0xbdcf099d	-0.101092555
130	0x3e2378af	0.15964006
131	0xbccfa1e8	-0.025345758
132	0x3e34f189	0.17670263
133	0xbc85f71c	-0.016353182
134	0xbe50f059	-0.20404185
135	0x3e765436	0.24055561
136	0x3da036db	0.07822963
137	0x3e17eef7	0.14837252
138	0x3db16899	0.086625285
139	0xbc3c2e04	-0.01148558
140	0xbe01ef33	-0.12688904
141	0x3defb7d5	0.11704985
142	0x3d7bd7d6	0.061485134
143	0xbdd646ad	-0.10462699
144	0xbdce1c69	-0.100640126
145	0xbe339a21	-0.17539264
146	0x3e0a9819	0.13534583
147	0x3dd75a6f	0.10515296
148	0xbd97db3f	-0.07414865
149	0xbd0fcf6f	-0.035109933
150	0x3adeca8f	0.0016997623
151	0xbd15deb1	-0.03658933
152	0xbca6c21e	-0.020356234
153	0x3dd98b64	0.1062229
154	0xbd540ea3	-0.05177177
155	0xbdc4218e	-0.095767125
156	0xbd01dbc3	-0.03170372
157	0x3b91833a	0.0044406923
158	0x3e2277d5	0.15866025
159	0xbe333ccb	-0.1750366
160	0xbe02742b	-0.12739627
161	0xbe0453fc	-0.12922662
162	0x3e6c548f	0.23079132
163	0x3deb0486	0.11475472
164	0x3cfdd349	0.030984538
165	0x3e2555d9	0.1614603
166	0x3e46c334	0.19410402
167	0x3d7cf65a	0.061758377
168	0x3b2786d8	0.002556255
169	0x3e4d5bed	0.20054598
170	0xbe2cf66e	-0.1689088
171	0x3e3d3c83	0.18480115
172	0xbd3bc9a3	-0.045846593
173	0xbe044d81	-0.1292019
174	0x395ae03c	0.00020873634
175	0xbdba01c2	-0.090823665
176	0xbd18c4e4	-0.037297145
177	0xbc8ac141	-0.016937854
178	0xbddea05c	-0.1087043
179	0x3e3b5805	0.18295296
180	0xbd0b55b2	-0.034017272
181	0xbe566aab	-0.20939128
182	0x3e88713f	0.266489
183	0x3c6091c7	0.013706631
184	0x3e2b330d	0.16718693
185	0x3dc4b3a5	0.09604577
186	0x3e16f22c	0.14740819
187	0x3e0464fb	0.12929146
188	0x3e0b21d7	0.13587128
189	0x3d126f6a	0.035750784
190	0xbe19bb38	-0.15012825
191	0xbc9b429f	-0.018952666
192	0xbe65abe1	-0.22428848
193	0x3db5b53a	0.08872457
194	0x3e236c80	0.15959358
195	0x3b05e0bc	0.0020428142
196	0x3b3735a0	0.0027955547
197	0xbde4bfa5	-0.11169366
198	0x3d21142e	0.039325885
199	0x3dbff8fa	0.093736604
200	0x3e40ebf7	0.18840013
201	0xbc14869a	-0.009065295
202	0x3dd9e333	0.10639038
203	0x3d8aa5cb	0.06769904
204	0xbdfb8499	-0.1228115
205	0x3cae5460	0.021280468
206	0xbe344cf0	-0.17607474
207	0x3df839b5	0.12120382
208	0xbda95ab2	-0.08269252
209	0xbe0c7d19	-0.13719596
210	0x3e00f32b	0.12592761
211	0x3e21fc34	0.15818864
212	0x3d8628cf	0.06550752
213	0x3e445cf2	0.19176081
214	0xbc97ce09	-0.018530862
215	0xbd78d994	-0.060754374
216	0xbe5819de	-0.21103618
217	0xbe167489	-0.14692892
218	0xbcf84092	-0.030304227
219	0x3d7786ba	0.06043122
220	0x3e0d7ab2	0.13816336
221	0x3cfdacc4	0.03096617
222	0x3e3bba8a	0.18332878
223	0xbc48ebad	-0.012263221
224	0x3cb4dc96	0.02207784
225	0xbdb177ab	-0.08665403
226	0x3d49aace	0.049235158
227	0x3e49f050	0.19720578
228	0x3dd75123	0.105135225
229	0xbbc08768	-0.0058755167
230	0xbc9f73eb	-0.019464454
231	0x3dab3863	0.08360364
232	0x3e1d0803	0.15335087
233	0xbe55a042	-0.20861915
234	0x3e1aae10	0.15105462
235	0xbdedb3c4	-0.11606553
236	0x3db6ef56	0.089323685
237	0x3e99e031	0.30053857
238	0x3ddb6b2b	0.107138
239	0x3d62319f	0.055223104
240	0x3e3ee08a	0.18640342
241	0x3e4b2a4c	0.19840354
242	0x3e71c55d	0.23610444
243	0xbbae5ec6	-0.0053213565
244	0x3e2560c9	0.16150202
245	0xbe3146ab	-0.17312114
246	0xbdc283f5	-0.09497825
247	0x3d9fe2f1	0.078069575
248	0x3e27b0a6	0.1637598
249	0xbe450729	-0.19241013
250	0x3d0a2654	0.03372796
251	0x3b62baed	0.003459628
252	0x3d9a79a5	0.07542733
253	0x3e2d3da5	0.16918047
254	0xbe37aae0	-0.17936277
255	0xbe4e8262	-0.20166925

convs.2.bias f4 [64]
0	0xbc47b4e2	-0.012189122
1	0xbc8d5bbf	-0.017255662
2	0xbc14ae40	-0.009074748
3	0x3c3de40f	0.011590018
4	0xbc1ab0dd	-0.009441582
5	0x3c5098de	0.012731759
6	0xbc689bbc	-0.014197286
7	0xbc3500e3	-0.011047575
8	0xbc93a280	-0.018021822
9	0xbcff1339	-0.031137096
10	0x3c153252	0.009106236
11	0xbba8a20c	-0.0051462706
12	0xbcf133f3	-0.029443717
13	0x3c38e241	0.011284412
14	0xbc582480	-0.013192296
15	0x3b7c9606	0.003854157
16	0x3ca3a051	0.019973906
17	0xbb1a65b4	-0.0023559155
18	0x3bd3a9ff	0.006459474
19	0xbca5d78d	-0.020244384
20	0xbbe86672	-0.0070922906
21	0xbc6f849f	-0.014619022
22	0xbc3eb930	-0.011640832
23	0xbb8e7dad	-0.004348478
24	0x3b4934bd	0.00307016
25	0x3b5c624e	0.003362793
26	0x00000000	0.0
27	0xbc12c097	-0.00895705
28	0xbcb429be	-0.02199256
29	0xbc6a6b2c	-0.014307778
30	0x3c3609ed	0.011110765
31	0x3c7f4907	0.015581376
32	0x3caeeb09	0.021352308
33	0x3c3c96d1	0.011510567
34	0xbc53bc42	-0.012923302
35	0xbc2ed513	-0.010670918
36	0xbc5b5c38	-0.013388686
37	0xbc41363a	-0.011792714
38	0xbc68a2f9	-0.014199012
39	0xbc9b7863	-0.018978303
40	0xbc77b0db	-0.015117849
41	0xbc6bd115	-0.014393111
42	0xbc67b776	-0.014142862
43	0xbc6bfd92	-0.014403718
44	0x3c1e62e3	0.009667131
45	0xbc3cf14a	-0.011532137
46	0xbb795a0c	-0.0038048057
47	0xbc47f5a6	-0.012204563
48	0xbc754566	-0.014970159
49	0xb9cf1c0a	-0.00039503007
50	0xbca962ce	-0.020676997
51	0xbc46b2c8	-0.012127586
52	0x3c0dbba4	0.008650694
53	0xbca8ccfe	-0.02060556
54	0x3cb839b0	0.022488445
55	0xbc53613d	-0.012901601
56	0xbd076e2c	-0.033064052
57	0x3ce159d3	0.027508652
58	0xbc71ad7f	-0.014750837
59	0xbbe09328	-0.00685348
60	0xbca9b30c	-0.020715259
61	0xbc9c9b72	-0.01911709
62	0x3c25c5e6	0.010117983
63	0xbc4fb568	-0.012677528

convs.2.lin.weight f4 [64, 64]
0	0x3e4f8e19	0.2026905
1	0xbdef24d8	-0.11676949
2	0x3daae317	0.08344095
3	0x3d197c4a	0.037472047
4	0xbe485723	-0.1956449
5	0xbe24edb6	-0.16106305
6	0x3e1fd7d6	0.15609679
7	0xbe5342cc	-0.2063095
8	0x3e297810	0.16549706
9	0xbe626155	-0.22107442
10	0x3e24decd	0.16100617
11	0x3c55d0ef	0.013050302
12	0xbe3c868a	-0.18410698
13	0xbd727dab	-0.059201878
14	0xbbcfbf52	-0.006339946
15	0x3e407f51	0.18798567
16	0x3e1ba19e	0.15198371
17	0xbc272127	-0.010200775
18	0x3e304def	0.1721723
19	0xbd917309	-0.07102019
20	0x3c7a5ee2	0.015281411
21	0xbe050d6b	-0.129934
22	0xbe24629e	-0.16053244
23	0xbda28853	-0.07936158
24	0xbded6976	-0.11592381
25	0x3e1af027	0.15130673
26	0x3e34ec34	0.1766823
27	0xbd304ab5	-0.043039996
28	0x3d9854db	0.0743806
29	0x3e0f5f75	0.14001258
30	0x3e662525	0.22475107
31	0xbe61cab2	-0.22049978
32	0xbc856089	-0.016281383
33	0x3daabaf0	0.08336437
34	0xbdc96524	-0.09833744
35	0x3de9d242	0.114170566
36	0xbdb872fa	-0.09006305
37	0x3e3d826f	0.18506788
38	0x3d9af6b2	0.07566585
39	0xbe29de1a	-0.16588631
40	0x3e0e87c1	0.13918974
41	0x3e148b9d	0.14506383
42	0xbe15c70a	-0.14626709
43	0xbcfa20a3	-0.03053314
44	0xbdca8a0b	-0.09889611
45	0x3dede101	0.11615182
46	0xbcec5a1e	-0.028851565
47	0x3e2ca90b	0.1686136
48	0x3da0315c	0.078219146
49	0x3da967e4	0.08271769
50	0xbca298cc	-0.01984825
51	0x3ce1c087	0.027557625
52	0xbe2010f2	-0.15631464
53	0x3d59a978	0.053140134
54	0xbe3f62dc	-0.18690056
55	0xbe1a5ce8	-0.15074503
56	0xbe6e4337	-0.23267828
57	0xbcf668df	-0.030079303
58	0xbe3de81d	-0.18545575
59	0x3da11a7a	0.07866378
60	0xbe593a20	-0.21213579
61	0xbe04c246	-0.12964734
62	0xbe21c0f1	-0.15796258
63	0xbe51d076	-0.20489678
64	0xbde56c01	-0.11202241
65	0xbe58ed63	-0.21184306
66	0xbd61c05e	-0.055115096
67	0x3a0f9ba1	0.00054782076
68	0xbdd68b4a	-0.10475786
69	0xbe59b5ff	-0.21260832
70	0x3b83d43a	0.004023102
71	0x3d64ca12	0.05585677
72	0xbe26bad5	-0.16282208
73	0xbd9b3d15	-0.0758001
74	0xbe1e822c	-0.15479344
75	0xbe01fba9	-0.12693657
76	0x3da3a9bc	0.07991359
77	0xbe376091	-0.17907931
78	0xbe46b7f4	-0.1940611
79	0x3d50a47e	0.050938122
80	0xbe308778	-0.17239177
81	0xbe561930	-0.20908046
82	0x3e440050	0.19140744
83	0x3ccdee78	0.025138125
84	0x3c4d8bdd	0.012545553
85	0xbdce6247	-0.10077339
86	0x3d8bd25f	0.068272345
87	0x3e24478a	0.16042915
88	0xbe63ab74	-0.22233373
89	0x3e2a946c	0.16658181
90	0x3df4df02	0.11956598
91	0x3d262a4c	0.04056768
92	0xbbdf8429	-0.0068211746
93	0x3d0e15f9	0.034688924
94	0x3c63e4d5	0.013909538
95	0xbe4aa12a	-0.19788042
96	0x3e4a4059	0.19751109
97	0x3e35bcb9	0.17747773
98	0x3dfbe806	0.12300114
99	0xbdb73762	-0.0894611
100	0xbd6eda65	-0.058313746
101	0x3e475a34	0.19468004
102	0x3e317c17	0.17332493
103	0xbdba5336	-0.090979025
104	0x3e5c4f2b	0.21514575
105	0x3dedcc1d	0.11611197
106	0x3e305960	0.17221594
107	0xbd87772d	-0.06614528
108	0x3cbc1d8a	0.022963304
109	0xbdf1a8f1	-0.11799801
110	0xbdf78fbf	-0.12087964
111	0xbe6a9be4	-0.2291103
112	0x3e420b6f	0.18949674
113	0xbb806d99	-0.003919315
114	0x3d8c97bf	0.06864881
115	0xbdd93329	-0.10605461
116	0xbe5c9b23	-0.21543555
117	0x3e19127e	0.1494846
118	0x3d084590	0.033269465
119	0xbe283e43	-0.16430001
120	0xbe1352ec	-0.14387101
121	0xbe0642e5	-0.13111456
122	0x3e4f3a6b	0.20237128
123	0xbc03edb8	-0.008052282
124	0xbe139780	-0.14413261
125	0xbdf1b82b	-0.118027054
126	0xbe5beab4	-0.21476251
127	0xbcec2e4a	-0.028830666
128	0x3e35534b	0.17707555
129	0x3e1eec2e	0.15519783
130	0xbe17c37d	-0.14820667
131	0xbd028aac	-0.03187053
132	0xbd8fd504	-0.070230514
133	0xbda05d87	-0.07830339
134	0xbdfc4be7	-0.12319165
135	0x3d129edf	0.035796043
136	0x3e25abf9	0.16178884
137	0x3db79fde	0.08966039
138	0xbdd1ef9a	-0.102507785
139	0x3e31e8df	0.1737399
140	0xbdea7e79	-0.11449904
141	0x3deae3d3	0.11469235
142	0xbcd67663	-0.026179498
143	0xbd8cbd60	-0.06872058
144	0xbdd3fa89	-0.1035052
145	0xbdb00456	-0.08594577
146	0x3c578eb7	0.013156584
147	0x3e45e1d5	0.1932443
148	0xbde0fb90	-0.10985482
149	0xbe02f793	-0.12789755
150	0xbe104c61	-0.14091636
151	0xbe094830	-0.13406444
152	0xbd4f6ff0	-0.05064386
153	0x3d6e27b1	0.05814332
154	0x3dbdb597	0.09263151
155	0xbe3447be	-0.17605492
156	0x3e4ae561	0.19814064
157	0x3d21ac90	0.03947121
158	0xbe170e8d	-0.14751644
159	0xbd584222	-0.052797444
160	0x3e346697	0.1761726
161	0xbe6320e0	-0.2218051
162	0x3df61d4e	0.12017308
163	0x3bffc727	0.007805723
164	0xbdd9623a	-0.10614438
165	0x3d572dcd	0.052533913
166	0x3d6b2b05	0.057414073
167	0x3e3c2f51	0.18377425
168	0x3e26bb1c	0.16282314
169	0xbe24beec	-0.16088456
170	0x3df40528	0.11915046
171	0xbddaa1ee	-0.10675417
172	0xbe3cc574	-0.18434697
173	0x3de0d4bb	0.10978075
174	0xbe199c08	-0.15000927
175	0x3e341165	0.1758476
176	0xbdad6532	-0.08466567
177	0x3dd1f39f	0.10251545
178	0x3dc292d0	0.095006585
179	0xbe0514ef	-0.12996267
180	0xbd7f8c8f	-0.062389906
181	0x3db5abbb	0.088706456
182	0x3dfa25d7	0.122142486
183	0xbc93fd0b	-0.018064996
184	0xbb9c90f0	-0.00477802
185	0xbb10c6b1	-0.0022091086
186	0xbe2e9b8d	-0.17051525
187	0x3d30a081	0.04312182
188	0xbdfe4678	-0.124157846
189	0x3e0bc73d	0.13650222
190	0xbe34bb4a	-0.1764957
191	0x3e165103	0.14679341
192	0x3e2587b6	0.16165051
193	0x3dc5d5a4	0.09659889
194	0xbe0b3df1	-0.13597848
195	0x3d75e41e	0.060032003
196	0x3d67769c	0.0565096
197	0xbe4612e7	-0.19343148
198	0x3e3dd1e7	0.18537103
199	0xbe3299f2	-0.17441538
200	0xbd67c7d9	-0.056587074
201	0xbd98de5b	-0.07464286
202	0xbe4aa1e3	-0.19788317
203	0xbe42d8cb	-0.19028012
204	0xbb88bb69	-0.0041727317
205	0x3e1354fa	0.14387885
206	0xbc3339b4	-0.0109390505
207	0xbe4997ee	-0.19686863
208	0xbdc60c83	-0.09670355
209	0x3e11ff7e	0.14257619
210	0x3daa2526	0.08307867
211	0xbe0c020a	-0.13672653
212	0xbb29a288	-0.002588423
213	0xbb7bee8e	-0.003844175
214	0xbc6de6fd	-0.014520404
215	0x3e55bb19	0.20872153
216	0x3d8d2138	0.068911016
217	0x3d14b6cd	0.036307145
218	0xbe356b3b	-0.17716686
219	0x3e4bcf8e	0.19903395
220	0xbe2c6398	-0.16834867
221	0x3db177b1	0.086654074
222	0xbd5a06e5	-0.05322923
223	0xbe146b0d	-0.14493962
224	0xbd2ac601	-0.041692737
225	0xbd0590b6	-0.03260871
226	0x3c84d443	0.016214496
227	0xbe0d3dea	-0.1379315
228	0xbddcf393	-0.107886456
229	0xbbf7a277	-0.007557209
230	0xbe3ed6dc	-0.1863665
231	0xbcc9c8cc	-0.02463188
232	0x3b82000b	0.0039672903
233	0xbd02df4e	-0.03195124
234	0xbdc9e331	-0.098577864
235	0xbe0d00cc	-0.13769835
236	0x3e16f2a6	0.14741
237	0x3e050b2a	0.1299254
238	0xbdd11ad1	-0.10210193
239	0x3db16e01	0.0866356
240	0x3e554a18	0.20829046
241	0xbd94a9ea	-0.07258971
242	0x3d8ab80a	0.06773384
243	0x3e2495eb	0.16072814
244	0xbdb4bae4	-0.08824709
245	0x3cc7931d	0.024362141
246	0x3e37fb2b	0.17966907
247	0x3dd70bb2	0.105002776
248	0x3e18e4df	0.14931057
249	0xbd19478c	-0.037421748
250	0xbc6e8300	-0.0145576
251	0x3db0132e	0.08597408
252	0xbe3767fd	-0.17910762
253	0x3e015cc9	0.12633051
254	0x3e1ab7ab	0.15109126
255	0x3e363adf	0.17795895

head.0.weight f4 [64, 64]
0	0x3dccb460	0.09995341
1	0x3df5b1e8	0.119968235
2	0x3da735cb	0.08164557
3	0xbc6aae62	-0.014323803
4	0x3cb91231	0.022591682
5	0x3a12d159	0.0005600653
6	0x3cc2cee2	0.02378029
7	0xbd959f85	-0.073058166
8	0x3ccfd7a2	0.025371376
9	0xbdb010a5	-0.08596925
10	0xbdc775ba	-0.097392514
11	0x3c6a9522	0.014317783
12	0xbd14aed1	-0.03629953
13	0xbc13cf99	-0.009021663
14	0xbd98c15b	-0.07458755
15	0xbd1abb9d	-0.03777658
16	0xbb9bc1b9	-0.004753318
17	0xbdd205d8	-0.10255021
18	0xbdc6c510	-0.097055554
19	0x3ddd3496	0.108010456
20	0x3ca816e9	0.020518737
21	0x3d591ad2	0.053004093
22	0xbc51e892	-0.012811797
23	0xbdfaf43a	-0.12253614
24	0x3accb1b2	0.0015616922
25	0xbdd3e014	-0.10345474
26	0x3cf0f78a	0.02941491
27	0xbca3f361	-0.020013513
28	0x3de69708	0.11259276
29	0xbd8e8fc5	-0.069610156
30	0x3cf40dca	0.029791731
31	0x3cce4262	0.025178138
32	0xbc8b1e91	-0.016982349
33	0x3b339319	0.002740091
34	0xbc24d769	-0.010061123
35	0x3cd243fa	0.02566718
36	0xbd0da0f9	-0.034577344
37	0x3df8405a	0.12121649
38	0xbdf31ab4	-0.118703276
39	0x3dd16bbe	0.10225628
40	0x3c15a8d9	0.009134495
41	0x3d99e999	0.07515258
42	0x3d3db5b1	0.046315853
43	0xbd9420a7	-0.072327904
44	0xbce3be22	-0.027800623
45	0xbd823987	-0.06358629
46	0x3cc26e22	0.023734156
47	0x3d843c2b	0.06456789
48	0x3dcbf168	0.09958154
49	0x3db99969	0.09062464
50	0x3cad9d01	0.02119303
51	0xbd556bbe	-0.052104704
52	0xbddbb4f4	-0.107278734
53	0x3dad5f21	0.0846541
54	0xbd6a369a	-0.05718098
55	0xbd1cdff9	-0.038299534
56	0xbc11a7f9	-0.008890145
57	0xbd4150de	-0.04719626
58	0x3ddd3f60	0.108031034
59	0xbd54c76e	-0.051948003
60	0x3d6f83c2	0.058475263
61	0x3d65b856	0.056084
62	0x3ca5c399	0.02023487
63	0x3da02fb7	0.07821601
64	0x3d17778d	0.036979247
65	0xbd9ef33d	-0.07761238
66	0xbdc5f0c0	-0.0966506
67	0xbd7aa0b2	-0.061188407
68	0x3cf96652	0.030444298
69	0xbd82c3af	-0.0638498
70	0x3dc5c56c	0.09656796
71	0xbdd256b6	-0.10270445
72	0xbca1ac21	-0.019735398
73	0xbdf8b9f2	-0.12144841
74	0x3dc23ef4	0.094846636
75	0xbd05e289	-0.032686744
76	0x3ddb6be4	0.10713938
77	0xb8ab4459	-8.166646e-05
78	0xbd1aa1d9	-0.037752006
79	0x3cb6dc51	0.022321852
80	0xbdaf37fb	-0.08555599
81	0x3dc00aca	0.09377058
82	0xbc5c7672	-0.013455974
83	0xbdb6705b	-0.08908149
84	0xbd2a4d75	-0.041577775
85	0xbc5b12b2	-0.0133711565
86	0x3dcec530	0.10096204
87	0xbd5b575a	-0.0535501
88	0x3bf9dff2	0.0076255733
89	0x3d462366	0.048373602
90	0x3c884161	0.016632738
91	0xbda88f03	-0.08230402
92	0xbdfba65a	-0.122875884
93	0xbdaf1d25	-0.08550481
94	0x3dac8fbb	0.08425852
95	0x3d179061	0.037002925
96	0x3df256fc	0.11832997
97	0xbd80a79d	-0.0628197
98	0x3df8c9b0	0.12147844
99	0x3da0bb97	0.0784828
100	0xbc94bc09	-0.018156068
101	0x3c6c0202	0.014404776
102	0xbd87bd91	-0.06627954
103	0xbde887a2	-0.11353995
104	0xbcffa982	-0.031208757
105	0x3da4c08d	0.08044539
106	0x3d60116e	0.054704122
107	0x3d3e8e45	0.046522398
108	0xbcb100d9	-0.02160685
109	0xbb526172	-0.003210154
110	0x3ccaed62	0.024771396
111	0x3df21a98	0.118214786
112	0xbdb54915	-0.0885183
113	0xbdedb318	-0.11606425
114	0x3d1df07d	0.038559426
115	0xbdb0b833	-0.08628883
116	0x3c6d5902	0.014486553
117	0xbdda42e8	-0.106572926
118	0x3c91c931	0.01779613
119	0x3de18aa2	0.1101277
120	0xbd76465a	-0.060125686
121	0xbda34fe7	-0.079742245
122	0x3b9823b9	0.0046429303
123	0x3d3a0ff5	0.045425374
124	0xbde98cc4	-0.11403802
125	0xb9c508b2	-0.00037581247
126	0x3d443d0e	0.04790979
127	0xbd8fada1	-0.07015539
128	0xbc70b462	-0.014691444
129	0x3d6c9c5a	0.057766296
130	0xbdca4052	-0.098755494
131	0x3db6d02d	0.08926425
132	0xbc87ca49	-0.01657595
133	0x3dae40b7	0.08508437
134	0x3dbd0ae3	0.09230592
135	0xbbe832f2	-0.0070861513
136	0xbce87712	-0.02837709
137	0xbdc75046	-0.09732108
138	0x3dd4f59c	0.10398409
139	0xbd3a09e5	-0.045419592
140	0x3bcb7bd2	0.006209829
141	0x3dff4800	0.12464905
142	0xbd14867d	-0.03626107
143	0xbd8b7939	-0.06810231
144	0x3da4dad1	0.080495484
145	0xbdbb3699	-0.09141273
146	0xbdd5eddc	-0.10445759
147	0xbd02e381	-0.031955246
148	0xbd1c0429	-0.038089905
149	0xbde26524	-0.11054447
150	0xbdd803f8	-0.10547632
151	0xbdd55132	-0.104158774
152	0xbc3d8219	-0.011566662
153	0xbddccdb2	-0.10781421
154	0xbc256309	-0.010094413
155	0xbca79369	-0.020456033
156	0xbc064ec9	-0.008197495
157	0x3d92ad11	0.07161916
158	0x3d3cf71d	0.046134103
159	0x3d65131a	0.05592642
160	0xbd307b61	-0.043086413
161	0x3c44b3b2	0.012005733
162	0x3d9558bd	0.07292316
163	0x3c6060a2	0.013694914
164	0x3debf742	0.1152177
165	0x3d268f19	0.040663812
166	0xbd5b098e	-0.05347591
167	0xbdbd60b5	-0.09246961
168	0xbc7926f2	-0.015207039
169	0xbd13202d	-0.035919357
170	0xbd912bef	-0.07088458
171	0x3c672642	0.0141082425
172	0xbcbd59b9	-0.023114072
173	0x3dd5084a	0.10401972
174	0x3d9b4b9d	0.075827815
175	0xbdd51962	-0.10405232
176	0xbdf8d12a	-0.1214927
177	0xbd77e26a	-0.06051866
178	0x3af99b32	0.0019043444
179	0xbd869a11	-0.065723546
180	0x3ca070e1	0.019585075
181	0x3cbaa8a9	0.022785502
182	0xbd3c49ed	-0.04596894
183	0xbcff875a	-0.03119247
184	0x3d581f3a	0.052764155
185	0x3deaedae	0.11471115
186	0x3ddf1004	0.108917266
187	0x3cd25a3a	0.025677789
188	0x3d979eb5	0.07403318
189	0x3dc92580	0.09821606
190	0x3dea2b86	0.11434083
191	0x3c399399	0.011326694
192	0x3d208dc6	0.039197706
193	0xbd81e7c7	-0.06343036
194	0xbdc88698	-0.09791297
195	0xbbd30c5c	-0.0064406823
196	0x3d589d66	0.05288448
197	0x3da7d4c1	0.081948765
198	0x3d5f307c	0.054489598
199	0xbdb131e5	-0.08652095
200	0x3dbc3345	0.091894664
201	0xbd52cd86	-0.051465534
202	0xbd0d4d24	-0.034497395
203	0xbdfa311a	-0.12216397
204	0xbccdd68a	-0.025126714
205	0x3bfe5292	0.007761308
206	0x3d86850b	0.06568345
207	0x3c39c4b9	0.011338406
208	0x3dae07e3	0.08497598
209	0x3d569748	0.052390367
210	0xbdf7217b	-0.12066933
211	0x3d3a4d7d	0.045484055
212	0x3cb3f2c9	0.021966355
213	0xbd286f82	-0.041121967
214	0xbabdad54	-0.0014471211
215	0xbd8f28c3	-0.069901966
216	0x3ddcacce	0.107751474
217	0x3aec4f58	0.0018029017
218	0xbddebf7a	-0.10876365
219	0x3df222e3	0.1182306
220	0xbc951559	-0.018198656
221	0x3d178b13	0.036997866
222	0xbd84badb	-0.06480952
223	0xbc2dfd79	-0.010619515
224	0xbcbc199f	-0.022961436
225	0xbdcedc80	-0.10100651
226	0xbcff9ebd	-0.031203622
227	0x3d4a5232	0.049394794
228	0xbdaa1670	-0.08305061
229	0xbdb98b4c	-0.09059772
230	0x3da83333	0.082128905
231	0xbc9f8672	-0.019473288
232	0x3bc89d12	0.00612224
233	0xbd916aa5	-0.07100419
234	0x3d4bdf46	0.049773477
235	0x3dba5389	0.09097964
236	0x3deb70e7	0.11496144
237	0x3dfa952a	0.12235482
238	0xbd74023a	-0.059572436
239	0x3d45499e	0.04816591
240	0x3dfeca16	0.124408886
241	0x3d2c8e41	0.04212785
242	0x3d207bd7	0.039180603
243	0xbdfacd5a	-0.12246199
244	0xbdb9c7de	-0.09071325
245	0x3d95df1a	0.07317944
246	0xbd10cf17	-0.035353746
247	0xbddbd130	-0.10733259
248	0x3bea61f2	0.0071527893
249	0x3d4fcd80	0.05073309
250	0xbd7b896e	-0.06141036
251	0x3dcbbd3e	0.099482045
252	0x3d80e177	0.06293004
253	0xbca0d6b8	-0.019633636
254	0xbdc8695e	-0.09785722
255	0xbbe62f80	-0.0070247054

head.0.bias f4 [64]
0	0xbd4b6bae	-0.04966324
1	0xbdd27adc	-0.1027734
2	0xbdd534fa	-0.10410495
3	0xbdb06ec3	-0.08614876
4	0x3c002648	0.007821627
5	0x3d550c05	0.052013416
6	0x3d856930	0.065142035
7	0x3d670a95	0.056406576
8	0x3d583a03	0.0527897
9	0x3d2f6a20	0.042825818
10	0xbb5ac0c1	-0.003337905
11	0xbd996ea2	-0.07491805
12	0xbccdb9fb	-0.025113096
13	0x3d45642a	0.048191227
14	0x3ccb7223	0.024834698
15	0xbda070f4	-0.07834044
16	0xbd52e84e	-0.051491074
17	0x3d3febc0	0.046855688
18	0x3d94ecbb	0.07271715
19	0x3c675082	0.014118316
20	0x3d5dacda	0.054119922
21	0x3a269497	0.0006354539
22	0x3d6157b3	0.055015277
23	0xbcb7e8ce	-0.022449877
24	0xbd1163ad	-0.03549545
25	0xbdefbcdc	-0.11705944
26	0x3d72fc52	0.059322663
27	0xbda77e6f	-0.08178412
28	0xbb0681f2	-0.002052423
29	0x3cfeee1e	0.031119402
30	0xbdd9d1d6	-0.10635726
31	0xbdf3104c	-0.11868343
32	0xbc51d1d4	-0.012806375
33	0xbccca3ff	-0.024980543
34	0xbdac40b7	-0.08410781
35	0xbd21a0e1	-0.039460067
36	0x3cd93c59	0.026518034
37	0xbd7db51c	-0.061940297
38	0xbde2bd7c	-0.110712975
39	0xbdcc76c0	-0.09983587
40	0x3d1bf2d1	0.038073365
41	0x3c71783a	0.014738137
42	0xbc82b861	-0.01595706
43	0xbdd7abee	-0.1053084
44	0x3c42baad	0.011885327
45	0xbdf38b98	-0.1189186
46	0xbd4a1b1a	-0.049342252
47	0x3bf5c712	0.0075005377
48	0xbd0f75b1	-0.03502435
49	0x3bc1df0c	0.005916482
50	0x3db83273	0.089939974
51	0x3bba3341	0.0056823795
52	0xbdbc6bf3	-0.09200277
53	0x3c8f1368	0.017465308
54	0x3cf52d9a	0.029928971
55	0x3c849517	0.016184373
56	0xbdc3869e	-0.095471606
57	0x3d729e0a	0.05923275
58	0x3d666810	0.056251585
59	0xbd3851ee	-0.04500001
60	0x3d0af2b7	0.033922877
61	0x3cea20e7	0.028580142
62	0x3cb9599b	0.022625735
63	0x3d3f622d	0.046724487

head.3.weight f4 [7, 64]
0	0x3dbfc89d	0.09364436
1	0x3dba380b	0.090927206
2	0x3d1b8951	0.037972752
3	0xbd0743b1	-0.03302354
4	0xbde01026	-0.1094058
5	0xbdb6251d	-0.088937975
6	0xbd21c8d9	-0.039498184
7	0x3dd68e75	0.1047639
8	0xbcbbc185	-0.022919426
9	0x3b3bbe88	0.00286475
10	0xbcb8f9be	-0.022580024
11	0x3d903d7f	0.070429794
12	0xbd9db555	-0.07700602
13	0xbd377f28	-0.044799
14	0x3c94b407	0.01815225
15	0x3cb83731	0.022487255
16	0xbde160c8	-0.11004788
17	0x3d567a86	0.05236294
18	0xbd92824e	-0.0715376
19	0x3dd7727e	0.105198845
20	0xbda2a77e	-0.07942103
21	0xbda8b8af	-0.082383506
22	0x3d5346e9	0.051581297
23	0xbd1d4f85	-0.038405914
24	0x3cfadf45	0.030624041
25	0xbc8172d1	-0.015801819
26	0x3d9ca35d	0.076483466
27	0x3dd5b4ae	0.104348525
28	0xbd6112d5	-0.0549496
29	0x3d9ae1c5	0.07562593
30	0xbdd85264	-0.1056259
31	0x3cc45cf2	0.023970101
32	0x3dc938c1	0.09825278
33	0x3dbebe27	0.093136124
34	0x3cf09792	0.02936915
35	0xbc4bd792	-0.012441533
36	0x3da58f53	0.080839776
37	0xbdc74721	-0.09730364
38	0x3d605bda	0.054775096
39	0x3d0d2a99	0.034464452
40	0x3cc51fa3	0.024062937
41	0x3dceef2c	0.10104212
42	0xbd535836	-0.051597796
43	0x3daaf4e2	0.08347489
44	0x3d090e04	0.033460632
45	0x3b939159	0.004503411
46	0x3d8b410b	0.06799515
47	0x3d0e70d5	0.034775574
48	0xbd528876	-0.05139967
49	0xbd88ac65	-0.06673507
50	0xbd060825	-0.03272261
51	0xbd6fc65e	-0.058538787
52	0xbc8f29c1	-0.017475965
53	0x3dcd5c25	0.10027341
54	0x3d783d9a	0.060605623
55	0x3d596430	0.053074062
56	0xbdd005b7	-0.1015734
57	0x3dc457e6	0.09587078
58	0x3c98d561	0.018656434
59	0x3b52bff5	0.0032157872
60	0x3d7e6ac1	0.062113527
61	0xbd35c7af	-0.044379886
62	0xbda67451	-0.08127654
63	0x3d07f619	0.03319368
64	0xbd02edb5	-0.031964976
65	0xbce8648a	-0.028368253
66	0x3c716e72	0.014735805
67	0xbdb7d0bb	-0.08975359
68	0xbd0bd77b	-0.034141045
69	0xbd8731f2	-0.06601323
70	0xbd71c096	-0.059021555
71	0x3dbe6d39	0.09298176
72	0x3dba1816	0.09086625
73	0x3d22c54a	0.03973893
74	0xbdbccf6e	-0.092192516
75	0xbc9365b2	-0.017992828
76	0xbd21464f	-0.039373692
77	0x3ce65450	0.028116375
78	0xbcddf1c5	-0.027092824
79	0x3db655e8	0.08903104
80	0xbcd90f85	-0.026496658
81	0x3d09f8ab	0.033684414
82	0xbde2befc	-0.11071584
83	0x3c638ad2	0.013888078
84	0xbc8ac365	-0.016938874
85	0x3de0f17d	0.1098356
86	0x3ce5f1e8	0.028069451
87	0xbdb93e0e	-0.09045039
88	0x3d209af2	0.039210267
89	0x3c912319	0.017716931
90	0x3c4c53e6	0.012471175
91	0xbdde2950	-0.108477235
92	0x3d8b145f	0.06790995
93	0xbda735ef	-0.08164584
94	0x3d5f0e52	0.054457016
95	0x3d3b5c59	0.045742366
96	0x3da8c662	0.082409635
97	0x3ccbd519	0.024881886
98	0x3d85b69d	0.06528971
99	0x3df58f06	0.1199017
100	0xbb8040d2	-0.003913977
101	0x3dbc4687	0.091931395
102	0x3be90192	0.007110783
103	0xbd877d27	-0.06615668
104	0x3d97936c	0.07401165
105	0xbd1e7270	-0.038683355
106	0x3cd8086b	0.026371202
107	0xbdbcbbc6	-0.092155024
108	0x3d58e1ef	0.052949842
109	0xbdb3c589	-0.08777911
110	0x3d75540a	0.0598946
111	0x3d6225e2	0.05521191
112	0xbd007b19	-0.031367395
113	0x3e01a3c4	0.12660128
114	0xbd9d1812	-0.07670607
115	0x3c28ad32	0.010295199
116	0xbce4817a	-0.02789377
117	0x3dfe7387	0.12424379
118	0x3d2f7175	0.04283281
119	0xbc9b2e36	-0.018942934
120	0xbdc0b562	-0.09409596
121	0x3d8f8061	0.07006908
122	0xbd646e23	-0.055769097
123	0xbd6a05b0	-0.05713433
124	0x3d84ce12	0.06484617
125	0x3e0ad984	0.13559538
126	0x3bb5f492	0.0055528367
127	0x3cb27b03	0.021787172
128	0xbdfb3824	-0.12266567
129	0x3da77f27	0.08178549
130	0xbce67172	-0.028130267
131	0xbdc48920	-0.09596467
132	0xbcfa8a6d	-0.030583585
133	0x39bed7be	0.00036400364
134	0xbc80a40e	-0.015703227
135	0x3e05c196	0.13062128
136	0x3db9ad77	0.09066289
137	0x3dcf4201	0.10120011
138	0x3db61193	0.08890071
139	0xbda519ef	-0.08061587
140	0xbd5a890d	-0.053353358
141	0xbd3f168e	-0.04665237
142	0x3ddd4995	0.1080505
143	0xbd712e3a	-0.058881976
144	0xbca86b79	-0.02055906
145	0x3d9b6caa	0.075890854
146	0xbdc78010	-0.09741223
147	0x3da838a9	0.08213932
148	0xbde16437	-0.110054426
149	0x3dbd5d40	0.09246302
150	0x3d7c1603	0.06154443
151	0x3d092711	0.033484522
152	0x3d6aba56	0.05730661
153	0xbc03c539	-0.008042627
154	0x3db612bc	0.08890292
155	0xbd8132eb	-0.0630854
156	0x3d145fd8	0.036224216
157	0x39c646fc	0.0003781839
158	0xbc0fe839	-0.008783394
159	0x3d519fe2	0.051177867
160	0x3e0fef79	0.14056195
161	0x3d3a5ef0	0.045500696
162	0xb9102859	-0.00013747941
163	0xbda070e3	-0.078340314
164	0x3cdcadfe	0.026938435
165	0x3dd4d503	0.10392191
166	0x3d9d7619	0.07688541
167	0x3cbdce99	0.023169803
168	0x3df5d5e0	0.12003684
169	0x3da15dab	0.07879194
170	0xbda1a59c	-0.078929156
171	0x3dc6011b	0.096681796
172	0x3dd4c1a6	0.10388498
173	0x3da6eefb	0.08151051
174	0xbd883a05	-0.06651691
175	0xbd885d49	-0.06658418
176	0x3dd02ac8	0.1016441
177	0xbdc546b5	-0.09632627
178	0x3daeafa2	0.08529593
179	0x3d3ce75b	0.046119075
180	0x3dd8b734	0.10581818
181	0xbd10370a	-0.03520874
182	0x3d921dd9	0.07134599
183	0xba71c528	-0.0009222799
184	0x3d375ec2	0.044768102
185	0x3dae4e72	0.08511056
186	0xbcc2fa15	-0.023800889
187	0xbba2e9a6	-0.0049717007
188	0x3dbeb502	0.09311868
189	0xbdbf9785	-0.09355072
190	0x3c39b9ef	0.011335834
191	0xbd81a751	-0.06330741
192	0x3c800ac9	0.015630143
193	0x3de30090	0.11084092
194	0xbc5fd6e2	-0.013662072
195	0xbd8f7dfa	-0.0700645
196	0x3bb45324	0.005503075
197	0x3de06d51	0.109583504
198	0x3cebe2cf	0.028794674
199	0x3d642fc5	0.05570962
200	0x3dbe679b	0.09297105
201	0xbc752c65	-0.014964198
202	0x3c0c110a	0.008548984
203	0xbd543185	-0.051805038
204	0x3d41fcd2	0.04736025
205	0x3d4bc3f5	0.049747426
206	0x3d81b172	0.06332673
207	0xbd16279b	-0.036658864
208	0xbde891b8	-0.11355919
209	0xbd2fdf6c	-0.04293768
210	0xbdc62a2c	-0.096760124
211	0xbd42a80a	-0.047523536
212	0xbd959b7e	-0.073050484
213	0xbde23836	-0.11045878
214	0xbc971bdd	-0.018445903
215	0xbdbb3375	-0.09140674
216	0x3debca07	0.11513143
217	0xbd458336	-0.048220836
218	0x3c357334	0.01107483
219	0x3d755a52	0.05990059
220	0x3d6f1e01	0.058378223
221	0xbd102df1	-0.035200063
222	0xbd91dc9d	-0.07122157
223	0xbda8da49	-0.082447596
224	0xb9fa48a2	-0.00047737831
225	0xbc3b15d9	-0.011418783
226	0xbc87f769	-0.016597467
227	0xbd9e6d49	-0.07735688
228	0x3cdb536d	0.026773179
229	0x3df0f121	0.11764742
230	0x3dc705fa	0.09717937
231	0x3d8bbb21	0.068228014
232	0x3d0eac26	0.034832142
233	0x3d6f4b11	0.0584212
234	0xbdb56c3c	-0.08858535
235	0xbc555973	-0.013021815
236	0x3d0841c9	0.033265863
237	0xbd88e06d	-0.06683431
238	0x3dee483e	0.11634873
239	0xbdca5b56	-0.09880702
240	0xbdbb563f	-0.091473095
241	0x3cae36ea	0.02126642
242	0xbc14e5a4	-0.009087954
243	0xbcbeb9c8	-0.023281947
244	0xbd2af3d1	-0.041736428
245	0x3d660825	0.05616011
246	0xb93bab2b	-0.00017897475
247	0x3d2d9ab7	0.042383876
248	0x3d4204ce	0.047367863
249	0x3cc729e4	0.024311967
250	0x3b1ccff7	0.0023927668
251	0xbdcc6625	-0.0998042
252	0x3dbcbc05	0.092155494
253	0xbdbed8a5	-0.093186654
254	0xbc9e2cc6	-0.019308459
255	0xbd12e421	-0.035862092

head.3.bias f4 [7]
0	0xbcdeaaf9	-0.027181135
1	0xbc9320fe	-0.017960068
2	0xbd1c25c6	-0.03812196
3	0xbc4bae1f	-0.01243165
4	0x3ccdda5e	0.02512854
5	0xbc16c5ab	-0.009202401
6	0x3c949f28	0.018142298
