gnn_ik_checkpoints/gnnik-epoch=032-val_loss=0.0025.ckpt (torch, 230157 bytes, 36 tensors)

lin_in.weight f4 [64, 9]
0.291363 -0.12794971 -0.106524274 -0.37080532 0.16256167 -0.02793926 -0.06604486 -0.13322492
-0.03916875 -0.06721608 0.15542847 0.0776713 0.0767801 0.22683336 0.13545723 -0.33481336
0.271184 -0.22278649 -0.18519847 -0.26516825 -0.0268045 0.1579309 0.123118095 -0.23138507
0.120051704 -0.2605189 0.07074785 0.046338886 0.043156907 -0.22707109 -0.0017558665 -0.08685276
0.20238197 -0.15294437 0.2821301 -0.23017827 0.4306514 -0.23431855 -0.14657189 0.34787583
-0.31833574 0.10406046 -0.32446814 0.1306029 -0.29391676 0.32374588 -0.18818769 0.16603301
-0.053813353 0.28284493 0.049359478 0.3301419 0.057388052 -0.110562444 -0.19597986 -0.005187837
-0.03969679 -0.34130624 -0.1433965 -0.3236572 0.07078387 0.24673678 -0.28146762 -0.23951761
-0.0635158 -0.0016103318 -0.023217505 0.26813328 -0.12558235 0.12938787 0.21369214 -0.08701006
-0.14686082 -0.17828466 -0.0437111 -0.13025054 -0.08992945 0.11612244 -0.3745809 -0.17331006
0.05936374 -0.33433482 -0.003953671 -0.22671413 -0.2221254 0.03511561 -0.12879644 0.21001403
0.28623122 -0.2505993 0.24353671 0.15860134 0.24511378 -0.16206628 -0.36014012 0.09030947
0.3031101 0.2784045 0.053040497 0.2361562 -0.22677547 -0.34139618 0.10355507 0.090456426
0.108772844 -0.08405426 0.0613028 0.20723966 -0.17024592 0.14589448 0.29389197 0.13682735
0.03758239 0.012885084 0.098861404 0.2891356 -0.21371825 -0.16096061 0.08621599 0.16046943
-0.15538155 -0.20279202 -0.24047214 0.0011659208 -0.25528696 -0.29504523 0.21878338 -0.19318081
-0.28003928 -0.32220498 -0.31986743 -0.19151136 -0.04550853 -0.20596053 -0.078637615 -0.07613619
-0.05769856 0.11337291 0.16209525 -0.12527525 0.18674478 0.2989051 -0.036394387 -0.24654855
0.23985454 0.10379511 0.27528417 -0.17364329 0.13326225 -0.07916453 0.046607655 -0.00621175
0.20022239 0.19772497 0.07209426 0.04897219 0.04709135 0.2639773 -0.024645811 -0.010569171
0.06349747 0.25907758 0.28280267 -0.23310019 -0.14005616 0.33753622 -0.16452578 0.28963584
0.12188759 0.053594798 -0.21005256 0.047565766 0.2152749 0.2591683 -0.10157616 0.098578386
-0.0060534994 0.26670805 -0.24426432 0.13982503 -0.23671612 0.06792934 0.25671574 0.19206154
-0.28786615 0.33837432 0.18122813 0.012307444 -0.27574527 0.41024598 -0.13242052 0.16322182
0.24708822 -0.30085072 0.012434785 0.009373022 -0.06878751 -0.23966207 0.14270896 -0.24519488
0.13401777 0.23869976 0.10125894 0.1327443 0.28323328 -0.29310372 0.0071776533 0.082607545
-0.26487672 -0.03336136 -0.16882126 -0.21647464 0.099131145 -0.38299808 -0.26854032 0.27351817
0.15674882 -0.36074606 -0.070214 0.1466339 0.09378592 0.19454941 0.277998 -0.26636258
0.24709567 -0.2556677 0.11469703 0.33775076 0.14874814 -0.04643441 0.24311154 0.30445376
0.2600476 0.27926916 0.35892376 -0.19519605 -0.09890516 0.118993536 -0.37320507 -0.28300995
0.21463852 -0.12369806 0.19838646 -0.2449576 0.19808261 -0.25668746 0.18177752 0.13638265
0.064205706 -0.21728025 -0.18822998 -0.24409339 -0.057672713 0.19293341 0.04583307 0.14586739
00000000: 882d 953e 4005 03be 6629 dabd 32da bdbe
00000010: 9176 263e e0e0 e4bc 8742 87bd 1d6c 08be
00000020: 696f 20bd 96a8 89bd a428 1f3e 2112 9f3d
00000030: e33e 9d3d 0147 683e 4db5 0a3e a86c abbe
00000040: a1d8 8a3e 2422 64be aba4 3dbe 22c4 87be
00000050: 1c95 dbbc a3b8 213e 5725 fc3d 35f0 6cbe
00000060: abdd f53d bc62 85be 40e4 903d d8cd 3d3d
00000070: 4cc5 303d 5385 68be 1a25 e6ba dcdf b1bd
00000080: 383d 4f3e 739d 1cbe 5b73 903e dab3 6bbe
00000090: 577e dc3e 34f1 6fbe f116 16be c81c b23e
000000a0: e7fc a2be a71d d53d b020 a6be c4bc 053e
000000b0: 427c 96be 05c2 a53e 46b4 40be 8f04 2a3e
000000c0: 646b 5cbd 0dd1 903e 2a2d 4a3d 5c08 a93e
000000d0: bc0f 6b3d 906e e2bd f2ae 48be bbfe a9bb
000000e0: 1a99 22bd b1bf aebe 88d6 12be 66b6 a5be
000000f0: 22f7 903d 91a8 7c3e 861c 90be 1b44 75be
00000100: 9214 82bd c511 d3ba a332 bebc c448 893e
00000110: a998 00be 417e 043e 1dd2 5a3e 5532 b2bd
00000120: af62 16be 4190 36be 690a 33bd 6660 05be
00000130: ee2c b8bd 9ad1 ed3d 11c9 bfbe 3178 31be
00000140: 6527 733d ef2d abbe cc8d 81bb c027 68be
00000150: d774 63be 63d5 0f3d 37e3 03be eb0d 573e
00000160: e68c 923e 8d4e 80be b061 793e 6468 223e
00000170: 1bff 7a3e b4f4 25be 4964 b8be 2cf4 b83d
00000180: 3f31 9b3e 098b 8e3e fe40 593d eed2 713e
00000190: d437 68be 7bcb aebe ae14 d43d 3841 b93d
000001a0: 4cc4 de3d a424 acbd a518 7b3d a236 543e
000001b0: f254 2ebe 5d65 153e 0279 963e 781c 0c3e
000001c0: feef 193d f61b 533c d977 ca3d 9509 943e
000001d0: f5d8 5abe dcd2 24be 0292 b03d 1952 243e
000001e0: 571c 1fbe b6a8 4fbe 543e 76be cfd1 983a
000001f0: f9b4 82be 2b10 97be c008 603e 31d1 45be
00000200: 4f61 8fbe 0df8 a4be aac5 a3be 8e1b 44be
00000210: 2767 3abd 51e7 52be c20c a1bd 4aed 9bbd
00000220: 5355 6cbd 0e30 e83d 4cfc 253e 2848 00be
00000230: 063a 3f3e 170a 993e 4812 15bd 3977 7cbe
00000240: 6e9c 753e 8892 d43d 0cf2 8c3e 8ccf 31be
00000250: e675 083e 0321 a2bd abe7 3e3d f08b cbbb
00000260: 1907 4d3e 6a78 4a3e 28a6 933d 1097 483d
00000270: dce2 403d 0828 873e 03e6 c9bc 512a 2dbc
00000280: f60a 823d d1a5 843e 83cb 903e d1b1 6ebe
00000290: e26a 0fbe 8cd1 ac3e 7279 28be 264b 943e
000002a0: 33a0 f93d 3886 5b3d 0518 57be 52d4 423d
000002b0: 0671 5c3e b5b1 843e 2907 d0bd 77e3 c93d
000002c0: 6f5c c6bb f58d 883e 6d20 7abe 4b2e 0f3e
000002d0: b665 72be 8a1e 8b3d 3f70 833e c8ab 443e
000002e0: 3163 93be 663f ad3e de93 393e 29a5 493c
000002f0: 7c2e 8dbe c30b d23e 3f99 07be 9f23 273e
00000300: b204 7d3e 1b09 9abe 45bb 4b3c 4e91 193c
00000310: 77e0 8cbd f969 75be 4c22 123e 5e14 7bbe
00000320: f43b 093e b66d 743e d960 cf3d 1fee 073e
00000330: f403 913e b111 96be 8532 eb3b 252e a93d
00000340: ec9d 87be eca5 08bd 7bdf 2cbe 87ab 5dbe
00000350: 4505 cb3d 5318 c4be 1e7e 89be 930a 8c3e
00000360: c382 203e b5b3 b8be 5ccc 8fbd 3227 163e
00000370: d512 c03d f637 473e c155 8e3e ad60 88be
00000380: a606 7d3e e0e6 82be 47e6 ea3d abed ac3e
00000390: 6f51 183e 0232 3ebd 3bf2 783e 5de1 9b3e
000003a0: f624 853e 5efc 8e3e dbc4 b73e 79e1 47be
000003b0: ca8e cabd e2b2 f33d bc14 bfbe aee6 90be
000003c0: 33ca 5b3e 6955 fdbd d225 4b3e 2ad6 7abe
000003d0: 2bd6 4a3e 8a6c 83be e323 3a3e e5a7 0b3e
000003e0: 487e 833d b77e 5ebe 5cbf 40be 9ef3 79be
000003f0: 393a 6cbd 5690 453e 75bb 3b3d 435e 153e

lin_in.bias f4 [64]
-0.09695392 0.059606384 0.016961373 0.32100448 -0.03662263 0.32718822 0.15443373 0.29116878
0.105290376 0.20417915 -0.25663066 -0.1588191 -0.29825726 0.31074542 -0.21002194 0.12695354
0.23637153 -0.12628423 0.15596275 -0.18454807 0.14843424 -0.11465961 0.18236266 0.11554824
0.29190406 -0.27630126 -0.12237088 0.03093363 0.3040615 0.12718064 0.32466197 -0.19591868
0.21142638 -0.08893296 -0.12729529 0.18055563 -0.22630514 -0.31095085 -0.15858121 -0.18999875
-0.2274723 -0.28337526 -0.28044015 0.082764916 -0.16510347 -0.16615656 -0.1919995 -0.105267785
-0.078262344 -0.22926435 -0.2605697 0.2521737 -0.08741828 -0.072114415 -0.030357411 0.202285
0.07863478 0.08496468 0.08743399 -0.05892138 0.1915035 -0.038587358 0.14526656 0.13342181
00000000: c78f c6bd d325 743d 94f2 8a3c b35a a43e
00000010: 9c01 16bd 3785 a73e e023 1e3e 1314 953e
00000020: 7ba2 d73d 5714 513e 1865 83be 79a1 22be
00000030: 2db5 98be 061a 9f3e fe0f 57be 1c00 023e
00000040: 610b 723e a750 01be b3b4 1f3e 2bfa 3cbe
00000050: 25ff 173e a8d2 eabd 47bd 3a3e 8ea4 ec3d
00000060: 7374 953e 5c77 8dbe 959d fabd 8668 fd3c
00000070: f3ad 9b3e a43b 023e 183a a63e e89e 48be
00000080: 2880 583e 7c22 b6bd b259 02be 93e3 383e
00000090: 89bc 67be f334 9fbe 1d63 22be 088f 42be
000000a0: 80ee 68be 9016 91be da95 8fbe a780 a93d
000000b0: e210 29be f224 2abe 849b 44be a396 d7bd
000000c0: 0248 a0bd 46c4 6abe 6469 85be e91c 813e
000000d0: 5b08 b3bd b9b0 93bd 1bb0 f8bc cd23 4f3e
000000e0: 460b a13d f601 ae3d 9710 b33d 8c57 71bd
000000f0: 7e19 443e c70d 1ebd c2c0 143e ba9f 083e

convs.0.bias f4 [64]
0.007737087 0.006154284 -0.01121617 -0.01798944 -0.01801215 0.00028731854 0.0 -0.011299902
0.012681933 0.0040271017 -0.0019109439 -0.012454696 -0.0015930663 -0.012247142 -0.0075765452 -0.014280179
-0.0028977417 0.0062506944 -0.007964575 -0.013759746 -0.015833639 -0.014065878 -0.005036602 0.00075764925
-0.0026049062 0.019448636 -0.001909405 -0.012566393 -0.002344841 -0.00690057 -0.013117423 0.0018995393
-0.007526835 0.0 0.0 0.004952044 0.0039164126 0.018212335 -0.009351789 -0.0040570204
-0.0028672323 0.0 0.019266726 0.0 0.015526196 -0.00030266654 -0.009760769 -0.008051971
-0.0022953572 0.0 -0.002872407 -0.009023166 -0.021772036 0.009180308 0.005711172 -0.0017698742
-0.0142817795 -0.0061214287 -0.013065432 -0.013287757 -0.0060285446 -0.007860563 0.0 -0.008109697
00000000: 6487 fd3b e0a9 c93b 07c4 37bc 975e 93bc
00000010: 378e 93bc 3ea3 9639 0000 0000 3923 39bc
00000020: e2c7 4f3c c7f5 833b a378 faba c80e 4cbc
00000030: 6fce d0ba 3da8 48bc ab44 f8bb 69f7 69bc
00000040: 0ae8 3dbb a0d2 cc3b d97d 02bc 8f70 61bc
00000050: 8cb5 81bc 9174 66bc 140a a5bb fb9c 463a
00000060: 13b7 2abb bf52 9f3c 0045 faba 46e3 4dbc
00000070: e7ab 19bb 2d1e e2bb 76ea 56bc f6f9 f83a
00000080: aba3 f6bb 0000 0000 0000 0000 c244 a23b
00000090: 4055 803b 0932 953c 3f38 19bc c1f0 84bb
000000a0: 2de8 3bbb 0000 0000 41d5 9d3c 0000 0000
000000b0: 9661 7e3c 37af 9eb9 a2eb 1fbc 6aec 03bc
000000c0: b46d 16bb 0000 0000 fe3e 3cbb e7d5 13bc
000000d0: 455b b2bc 0169 163c c824 bb3b 20fb e7ba
000000e0: 20fe 69bc 4496 c8bb 6510 56bc e4b4 59bc
000000f0: 198b c5bb 97c9 00bc 0000 0000 89de 04bc

convs.0.lin.weight f4 [64, 64]
-0.10387277 -0.0019630184 0.14078298 0.084973544 0.19616589 -0.14997177 0.052244414 0.14692003
-0.10512584 -0.16269332 -0.02035828 -0.19296508 0.026183296 0.15590607 -0.08106676 -0.19282407
0.058427516 -0.12832698 0.060642652 -0.10213851 0.17359672 0.32493776 -0.17376828 0.18617046
-0.14445943 -0.12977502 -0.042405114 -0.091100484 -0.037341386 0.040158775 -0.14187665 0.09861258
0.024831364 -0.12314801 0.15081404 0.1814657 0.047979515 0.077641904 0.061111536 0.016909303
0.11906824 -0.023643924 -0.080023475 -0.060556054 -0.070294484 -0.019533668 -0.25964662 0.23466668
-0.061988097 -0.061561253 -0.0029407484 0.07837824 -0.09176114 0.112082064 0.082051516 -0.043660253
0.07057856 0.21047623 -0.101362 -0.024865769 0.041960612 0.03415163 -0.10538759 0.08124904
-0.13281462 0.14015217 -0.19876857 -0.040852975 -0.115072094 0.02597468 0.12446344 -0.20187931
0.11741332 0.06280908 0.061253216 -0.0066120476 -0.11270581 -0.11885839 0.01799192 -0.102200866
0.16580716 -0.016917484 0.11678703 -0.0046291267 0.14080998 0.08827854 -0.019160504 0.19940911
0.16315818 0.2235598 -0.12840411 0.21521075 -0.19825335 -0.17990758 0.07589454 0.15544663
-0.016499639 -0.03725307 0.059908237 -0.084024265 0.13915439 -0.19727683 -0.12031523 0.022599367
0.06420754 -0.089648396 -0.16105899 0.0708851 0.21367586 -0.0063205548 -0.095553435 0.14024156
0.1586049 0.14916405 0.115054965 0.016057862 0.21893995 0.1163824 -0.074261695 0.047488775
-0.21103886 -0.076937415 -0.10696794 -0.18646637 -0.004906224 0.035478227 0.017820343 0.053627826
0.06814514 -0.08527734 -0.09230258 -0.080350235 -0.1922148 0.033812784 0.022458449 0.026573861
0.082126155 -0.01886472 0.13968408 0.08011299 -0.14447735 0.046865482 -0.0006283579 -0.16100466
0.04139735 0.09782671 0.11775525 -0.041973375 -0.019548744 0.02308341 -0.021424789 0.07395193
-0.033087313 0.18179123 0.15248309 0.016182473 -0.1552645 -0.0013103988 -0.010004066 -0.045515683
0.16358876 0.011947389 0.21341453 -0.015563867 0.04799708 -0.07453356 -0.13645828 0.008750437
-0.024751153 -0.04855903 -0.19581978 -0.10960697 -0.026555281 0.14668186 0.032645203 0.11605712
-0.09033951 0.14391917 0.064701214 -0.09218617 -0.01969959 0.16680011 -0.21582298 0.037438773
-0.05774729 -0.056316253 0.11721821 -0.21584055 0.12877727 -0.06096141 0.12718967 -0.06776077
-0.014269157 0.118150905 -0.10949166 -0.017610507 -0.17105685 -0.17078394 -0.053891964 0.13119215
-0.06795722 -0.049846977 0.098889984 -0.18444568 -0.16724068 -0.044467162 0.0028098489 -0.20626646
0.120835096 0.19920687 0.16611838 -0.023175536 -0.08312342 -0.058586378 -0.030920709 -0.058609277
0.19909841 -0.015286418 -0.022459026 -0.16778855 -0.11969006 0.0125607895 -0.1606654 -0.12789798
-0.035183236 0.008851108 -0.1999094 0.0882453 -0.03453763 0.037830535 0.14895585 -0.19561309
-0.040532798 -0.11652515 0.13510604 -0.031808916 -0.18770614 -0.10175075 -0.050914276 -0.19820565
-0.214545 -0.02030238 0.038687017 -0.052001875 0.121235326 -0.21522936 0.02226334 0.1615133
0.17481248 -0.13158537 -0.20061086 -0.023886874 0.19837375 0.0016805689 0.17436427 -0.23030722
00000000: 3fbb d4bd fca5 00bb 6a29 103e 9c06 ae3d
00000010: b6df 483e 3392 19be 3dfe 553d 3472 163e
00000020: 374c d7bd 1499 26be 68c6 a6bc a398 45be
00000030: 5a7e d63c d7a5 1f3e 5406 a6bd ac73 45be
00000040: b151 6f3d 2668 03be 6e64 783d ff2d d1bd
00000050: 57c3 313e 3e5e a63e 50f0 31be 78a3 3e3e
00000060: 2ced 13be bee3 04be fcb0 2dbd e492 babd
00000070: 48f3 18bd 877d 243d 1d48 11be 64f5 c93d
00000080: 256b cb3c 0635 fcbd ff6e 1a3e 25d2 393e
00000090: 2b86 443d b802 9f3d 1750 7a3d 6185 8a3c
000000a0: 0dda f33d e7b0 c1bc 59e3 a3bd a009 78bd
000000b0: 8ef6 8fbd 1205 a0bc 67f0 84be 764c 703e
000000c0: 3be7 7dbd a727 7cbd 92b9 40bb c584 a03d
000000d0: 44ed bbbd 488b e53d a00a a83d 18d5 32bd
000000e0: 7e8b 903d 1587 573e e196 cfbd 4cb3 cbbc
000000f0: e4de 2b3d 94e2 0b3d 73d5 d7bd e665 a63d
00000100: 8e00 08be 0d84 0f3e fd89 4bbe 7355 27bd
00000110: ebaa ebbd dac8 d43c b0e6 fe3d 73b9 4ebe
00000120: 6576 f03d 0ca2 803d a7e4 7a3d e0a9 d8bb
00000130: 4ed2 e6bd 076c f3bd ca63 933c b04e d1bd
00000140: 5ac9 293e 8996 8abc 0a2e ef3d eeaf 97bb
00000150: 7e30 103e 61cb b43d 7df6 9cbc e731 4c3e
00000160: f012 273e dcec 643e 5e7c 03be 3560 5c3e
00000170: ed02 4bbe b139 38be 996e 9b3d 672d 1f3e
00000180: 402a 87bc ad96 18bd 5762 753d ea14 acbd
00000190: 7d7e 0e3e f002 4abe d567 f6bd 4f22 b93c
000001a0: 3e7f 833d 9499 b7bd a6ec 24be 352c 913d
000001b0: d8cd 5a3e a81c cfbb 85b1 c3bd 7c9b 0f3e
000001c0: 5369 223e 76be 183e f0a1 eb3d c78b 833c
000001d0: cb31 603e e559 ee3d 8416 98bd 9783 423d
000001e0: 921a 58be 5d91 9dbd 0212 dbbd 0af1 3ebe
000001f0: 64c4 a0bb 9e51 113d f8fb 913c daa8 5b3d
00000200: ae8f 8b3d e3a5 aebd 2309 bdbd aa8e a4bd
00000210: f5d3 44be 467f 0a3d c8fa b73c 6db1 d93c
00000220: c231 a83d 2f8a 9abc 5809 0f3e 4812 a43d
00000230: dff1 13be 05f6 3f3d 63b8 24ba 68de 24be
00000240: 4590 293d 5f59 c83d aa29 f13d 46ec 2bbd
00000250: b024 a0bc 6b19 bd3c 0a83 afbc 1c74 973d
00000260: 9086 07bd 7b27 3a3e 8724 1c3e 1b91 843c
00000270: a8fd 1ebe b0c1 abba 18e8 23bc a76e 3abd
00000280: d083 273e fbbe 433c 5789 5a3e 97ff 7ebc
00000290: 9698 443d 0da5 98bd b8bb 0bbe fe5d 0f3c
000002a0: eec2 cabc d5e5 46bd fb84 48be 9e79 e0bd
000002b0: 768a d9bc c533 163e fab6 053d 5baf ed3d
000002c0: ec03 b9bd 8c5f 133e 1282 843d 1acc bcbd
000002d0: 0961 a1bc a6cd 2a3e b300 5dbe 6659 193d
000002e0: 6c88 6cbd dfab 66bd 1a10 f03d 4e05 5dbe
000002f0: 30de 033e acb2 79bd 023e 023e 29c6 8abd
00000300: 2fc9 69bc 1af9 f13d 2a3d e0bd e943 90bc
00000310: 8729 2fbe fce1 2ebe d2bd 5cbd 3c57 063e
00000320: 282d 8bbd 582c 4cbd d586 ca3d 54df 3cbe
00000330: 2441 2bbe 3323 36bd 7125 383b 8437 53be
00000340: 6478 f73d e3fc 4b3e f01a 2a3e 9fda bdbc
00000350: 9d3c aabd 45f8 6fbd 6d4d fdbc 4810 70bd
00000360: 74e0 4b3e e273 7abc fefb b7bc c3d0 2bbe
00000370: 1020 f5bd c5cb 4d3c 7885 24be b0f7 02be
00000380: 4c1c 10bd 3d04 113c 0db5 4cbe f4b9 b43d
00000390: 5477 0dbd 31f4 1a3d e287 183e cc4e 48be
000003a0: b805 26bd bda4 eebd 3d59 0a3e 114a 02bd
000003b0: 0a36 40be b262 d0bd 7d8b 50bd 6cf6 4abe
000003c0: afb1 5bbe 2d51 a6bc 4776 1e3d ebff 54bd
000003d0: 3a4a f83d 1665 5cbe 9c61 b63c be63 253e
000003e0: 0b02 333e 51be 06be ef6c 4dbe 68ae c3bc
000003f0: 7d22 4b3e 8946 dc3a 8c8c 323e a8d5 6bbe

convs.1.bias f4 [64]
0.013940551 -0.025559207 -0.009096847 -0.012685947 0.009281079 0.003485206 -0.009381 0.0063300855
-0.01963421 -0.0053654867 -0.00957502 -0.0075172223 0.02741271 -0.025262304 -0.033289474 -0.028186753
-0.02385727 -0.036339223 -0.016860455 0.0011244003 -0.0060506365 -0.013873781 -0.016752524 -0.02222393
0.022221714 -0.0050386153 -0.009406467 -0.008109795 -0.012798018 -0.011600437 -0.005526767 -0.009982061
0.0076342523 -0.0034311905 0.0 -0.021137023 -0.005345192 -0.016812142 0.025488265 -0.001629002
0.00046208224 -0.0072515253 -0.01642057 0.010394487 3.156191e-05 -0.02371549 0.012259129 0.017889684
-0.018343462 -0.019327734 -0.0118794935 -0.008300078 0.035514027 -0.0026508742 -0.022396103 0.004950792
-0.0034111901 -0.01195303 -0.009099265 -0.006439353 -0.011736539 0.023827268 -0.02173498 -0.013127875
00000000: e966 643c 8b61 d1bc f10a 15bc b8d8 4fbc
00000010: ab0f 183c 0e68 643b c4b2 19bc 9b6c cf3b
00000020: ecd7 a0bc f7d0 afbb 8be0 1cbc 0853 f6bb
00000030: 9f90 e03c e4f2 cebc 8b5a 08bd e8e7 e6bc
00000040: 5270 c3bc 70d8 14bd f01e 8abc 9d60 933a
00000050: 6b44 c6bb db4e 63bc 973c 89bc f60e b6bc
00000060: 500a b63c f81a a5bb 951d 1abc f2de 04bc
00000070: c7ae 51bc c20f 3ebc e219 b5bb cc8b 23bc
00000080: c028 fa3b d3dd 60bb 0000 0000 8d27 adbc
00000090: b826 afbb 9eb9 89bc c4cc d03c 3d84 d5ba
000000a0: a143 f239 349e edbb 6e84 86bc a34d 2a3c
000000b0: 5861 0438 fd46 c2bc 84da 483c 638d 923c
000000c0: 0745 96bc 3255 9ebc 35a2 42bc 0dfd 07bc
000000d0: 2877 113d 4aba 2dbb 0878 b7bc 413a a23b
000000e0: 468e 5fbb a4d6 43bc 1515 15bc 3501 d3bb
000000f0: 9d4a 40bc 6731 c33c 8f0d b2bc 4c16 57bc

convs.1.lin.weight f4 [64, 64]
-0.046752587 0.17218974 -0.019246472 0.029243153 -0.12547751 -0.029883271 0.06300736 0.13244155
0.05486254 0.040302854 0.20910032 -0.14175159 -0.09150769 -0.099741936 -0.021457253 0.15034516
0.052181717 -0.049870793 -0.19666547 0.071096614 -0.032170344 0.12737796 0.10126782 0.20220871
0.023166634 -0.11409341 0.034929927 0.16019458 -0.031174961 -0.13929737 0.18090764 0.20978889
0.054353654 -0.015830502 0.103470415 -0.1419989 0.06678966 -0.18586524 -0.104669444 0.08531496
-0.16600332 -0.16314341 -0.012028634 0.05905347 -0.19749027 -0.03250554 -0.1115481 0.0135418875
-0.06248495 -0.012017571 -0.1033309 0.17163451 -0.106264494 0.0027781741 -0.09616233 -0.2073017
0.09030087 0.17043357 0.134809 0.029219141 0.09384606 0.08378118 0.02559675 0.20313239
-0.2052773 0.081896484 -0.05053576 -0.21261443 -0.14777085 0.02464436 -0.13520029 0.03573792
-0.030122511 -0.19025648 0.20768794 -0.025208041 0.036841657 -0.110897996 0.029685736 -0.021605214
-0.23533845 -0.19678085 -0.049507726 -0.013400054 -0.00026362867 -0.07581798 -0.16327886 -0.22083803
-0.030379802 -0.16660264 -0.08524037 0.065796144 0.16910279 -0.034953315 0.15496671 -0.10241408
0.11753664 0.16151685 -0.03401117 0.15748043 -0.12961724 -0.16130622 -0.12308597 0.036849216
0.13666609 0.14986308 -0.17875926 0.1965348 -0.0314337 0.061011754 -0.13883288 0.19100179
-0.03086127 -0.06359427 0.078367464 0.06439998 -0.07629593 -0.065860674 0.18343697 0.17344287
0.059388764 0.015086169 -0.066682704 0.052448977 -0.019371858 0.0495138 0.12594287 -0.07747786
0.08653444 -0.006724234 0.17457017 0.12657027 0.13045503 0.11216061 0.07020103 0.120895155
0.018915867 -0.19890891 0.031680968 0.09211034 0.0516325 0.06475665 -0.07911368 -0.09661618
0.020000465 -0.2004543 0.1556903 0.012494101 0.06433526 0.08783558 0.13108559 0.123873614
-0.13494392 -0.049785204 0.1197775 0.0828567 -0.18509234 -0.00054724974 -0.13360368 -0.1798049
0.11283484 -0.057048246 -0.07191535 -0.117223404 -0.14796609 0.17721505 -0.20854057 -0.031070605
-0.12565035 -0.18367057 0.049064152 0.1883504 -0.17209083 -0.21661602 0.13557993 0.018602517
-0.06118495 -0.119235694 0.13591024 0.021827342 -0.043399088 -0.067135565 -0.06994539 0.045380697
0.15674771 0.07143728 -0.1432483 0.076024815 0.10592501 0.15421945 -0.14375208 0.034224387
0.080707364 -0.19523901 0.056916565 -0.0788209 -0.06083714 -0.20327048 -0.016747257 -0.043798942
-0.061612897 0.08182185 0.12632719 0.1252754 -0.14312091 0.042608395 0.1262075 0.20760997
-0.08333257 -0.05863328 0.076889984 -0.19876239 0.1984187 -0.0007901466 0.082305245 -0.15576537
0.14986232 -0.034746557 0.20348597 -0.14216942 -0.11333705 0.20567557 -0.0103328 -0.017444156
0.08331845 -0.056068696 0.07706245 0.18365641 0.009998946 0.18255442 0.13594379 0.05955709
0.19229855 -0.06504789 -0.16637391 0.0042787413 0.1945176 -0.0075581223 0.0021202087 -0.07882739
0.055259388 -0.08185732 0.12903543 0.12254837 0.20182039 0.16924311 0.083003715 -0.13867038
0.012887573 0.064533755 0.02753729 0.12920377 0.053575803 -0.022428997 -0.21336983 0.098423675
00000000: a47f 3fbd 8252 303e c7aa 9dbc 568f ef3c
00000010: 2d7d 00be c3cd f4bc 010a 813d c29e 073e
00000020: 8bb7 603d 9b14 253d 651e 563e 5427 11be
00000030: 6268 bbbd 8045 ccbd 1fc7 afbc 15f4 193e
00000040: 7fbc 553d 5145 4cbd ac62 49be 1a9b 913d
00000050: 0dc5 03bd 5e6f 023e 8165 cf3d cd0f 4f3e
00000060: f4c7 bd3c cea9 e9bd af12 0f3d 0c0a 243e
00000070: a262 ffbc f8a3 0ebe da3f 393e e6d2 563e
00000080: f0a1 5e3d f8ae 81bc 4ce8 d33d 2968 11be
00000090: 04c9 883d 7553 3ebe ef5c d6bd 9cb9 ae3d
000000a0: c6fc 29be 110f 27be bf13 45bc 0de2 713d
000000b0: e43a 4abe 8724 05bd 5573 e4bd cbde 5d3c
000000c0: 38f0 7fbd 59e5 44bc 279f d3bd f5c0 2f3e
000000d0: 33a1 d9bd 0712 363b c1f0 c4bd e646 54be
000000e0: aaef b83d 2386 2e3e 5f0b 0a3e fb5c ef3c
000000f0: 5d32 c03d 7895 ab3d 47b0 d13c f001 503e
00000100: 3634 52be 58b9 a73d 96fe 4ebd 99b7 59be
00000110: 3e51 17be f8e2 c93c f271 0abe ed61 123d
00000120: 7cc3 f6bc 98d2 42be 26ac 543e 1881 cebc
00000130: 47e7 163d 7d1e e3bd 802f f33c 6bfd b0bc
00000140: 90fc 70be eb80 49be 9dc8 4abd e68b 5bbc
00000150: a437 8ab9 7546 9bbd 9332 27be 5d23 62be
00000160: 10df f8bc e299 2abe 8192 aebd 21c0 863d
00000170: 4829 2d3e 352b 0fbd 98af 1e3e 79be d1bd
00000180: 0db7 f03d ac64 253e 4c4f 0bbd 8d42 213e
00000190: 62ba 04be 752d 25be 7f14 fcbd 34ef 163d
000001a0: 32f2 0b3e b575 193e ab0c 37be 6b40 493e
000001b0: a0c0 00bd 76e7 793d 352a 0ebe f995 433e
000001c0: c6d0 fcbc b63d 82bd 1f7f a03d 23e4 833d
000001d0: 0a41 9cbd f6e1 86bd e7d6 3b3e 029b 313e
000001e0: a241 733d fb2b 773c f190 88bd bdd4 563d
000001f0: bbb1 9ebc fbce 4a3d 2bf7 003e b6ac 9ebd
00000200: f838 b13d f756 dcbb 86c2 323e a39b 013e
00000210: 0196 053e 76b4 e53d 8fc5 8f3d e197 f73d
00000220: 73f5 9a3c c7ae 4bbe e7c3 013d 59a4 bc3d
00000230: 9a7c 533d 229f 843d 5a06 a2bd b4de c5bd
00000240: 04d8 a33c e443 4dbe 476d 1f3e 0fb4 4c3c
00000250: 34c2 833d 24e3 b33d 4d3b 063e 73b1 fd3d
00000260: bd2e 0abe 92eb 4bbd e84d f53d c6b0 a93d
00000270: d988 3dbe 4f75 0fba 67cf 08be c71e 38be
00000280: f415 e73d 6cab 69bd 5b48 93bd d312 f0bd
00000290: 6c84 17be dd77 353e a98b 55be c887 febc
000002a0: 7caa 00be 2314 3cbe 7ef7 483d edde 403e
000002b0: 9438 30be 97d0 5dbe 77d5 0a3e 4e64 983c
000002c0: 129d 7abd d831 f4bd 0e2c 0b3e 41cf b23c
000002d0: 3ec3 31bd 5f7e 89bd 873f 8fbd 1ce1 393d
000002e0: 7982 203e b54d 923d afaf 12be e6b2 9b3d
000002f0: 36ef d83d b4eb 1d3e bf33 13be df2e 0c3d
00000300: e749 a53d bcec 47be 5821 693d da6c a1bd
00000310: 5d30 79bd 2326 50be 8b31 89bc 8566 33bd
00000320: ce5d 7cbd 3792 a73d ea5b 013e 3248 003e
00000330: 4a8e 12be 2486 2e3d 8a3c 013e b597 543e
00000340: 44aa aabd 7329 70bd 7f78 9d3d 5e88 4bbe
00000350: 462e 4b3e d721 4fba a78f a83d f580 1fbe
00000360: 8275 193e 6852 0ebd a05e 503e dc94 11be
00000370: 411d e8bd 9e9c 523e e84a 29bc 0ce7 8ebc
00000380: dda2 aa3d 4aa8 65bd ebd2 9d3d 6d10 3c3e
00000390: 9fd2 233c 8cef 3a3e d934 0b3e 23f2 733d
000003a0: e9e9 443e d437 85bd ec5d 2abe af34 8c3b
000003b0: 9f2f 473e 20aa f7bb 33f3 0a3b 4170 a1bd
000003c0: ab57 623d d0a4 a7bd dd21 043e a4fa fa3d
000003d0: 01aa 4e3e 114e 2d3e dafd a93d 9cff 0dbe
000003e0: 6626 533c 462a 843d e295 e13c fe4d 043e
000003f0: 4d72 5b3d 04bd b7bc 9f7d 5abe 5a92 c93d

convs.2.bias f4 [64]
-0.006960228 -0.013457631 -0.003383346 -0.01010934 -0.014248366 -0.0015545399 0.03400324 -0.015987309
-0.0017402997 0.010192487 0.079047345 0.009676027 -0.011418597 0.027825886 -0.015966704 0.0018394698
-0.033850048 2.156027e-05 0.027907876 -0.010847676 -0.014636242 -0.019861182 -0.01729609 0.008861306
0.012249719 -0.0012088842 -0.018550433 0.0015316134 -0.0023968401 -0.019746797 0.002826491 -0.0041114953
-0.013590066 0.03462957 -0.02264509 0.009156421 -0.0013836483 -0.0055838595 0.010547698 0.012004334
-0.019182628 -0.011112399 -0.021446649 -0.012490503 0.052555464 -0.02458417 -0.008051813 -0.039425448
-0.010586503 -0.01647555 -0.012056748 -0.008274157 -0.02293417 -0.007926135 0.0010864948 -0.008280348
0.00835055 -0.012125325 0.02197979 -0.01213756 0.033927362 -0.007509515 -0.016159706 0.058594458
00000000: a012 e4bb 657d 5cbc 20bb 5dbb a5a1 25bc
00000010: fa71 69bc b4c1 cbba fb46 0b3d d1f7 82bc
00000020: c51a e4ba 64fe 263c 93e3 a13d 3388 1e3c
00000030: 1115 3bbc 1df3 e33c 9bcc 82bc 5d1a f13a
00000040: 59a6 0abd 54dc b437 0f9f e43c 73ba 31bc
00000050: d9cc 6fbc ebb3 a2bc 88b0 8dbc 032f 113c
00000060: 0cb3 483c 6c73 9eba 14f7 97bc 6bc0 c83a
00000070: 4e14 1dbb 09c4 a1bc a63c 393b b9b9 86bb
00000080: dea8 5ebc bcd7 0d3d 3282 b9bc d004 163c
00000090: 885b b5ba cff8 b6bb 40d0 2c3c d3ad 443c
000000a0: e324 9dbc c810 36bc e2b0 afbc f7a4 4cbc
000000b0: 6644 573d be64 c9bc c0eb 03bc 947c 21bd
000000c0: 0373 2dbc bcf7 86bc ab89 45bc 5490 07bc
000000d0: 71e0 bbbc 9fdc 01bc b768 8e3a 4caa 07bc
000000e0: bfd0 083c 4da9 46bc f60e b43c 9edc 46bc
000000f0: 6bf7 0a3d 6112 f6bb 5c61 84bc be00 703d

convs.2.lin.weight f4 [64, 64]
0.121397965 -0.0058848253 0.1644677 0.09965074 0.12771326 -0.1901302 -0.04839176 -0.03769222
0.21372199 0.06901947 -0.1163775 0.09742962 -0.07403042 -0.19961455 -0.027446426 -0.083256304
-0.16407056 0.20203239 0.052123964 0.14959815 -0.09316029 0.18083405 0.06592092 0.21768117
0.03428198 0.060657863 -0.160051 -0.18055966 0.060608458 0.18415157 0.028386924 0.12372382
0.18627061 0.15475747 0.074689366 0.13202013 0.0059629097 0.12787828 0.18908231 -0.20286667
0.14342424 0.19360076 0.023991818 -0.03516293 -0.21631894 0.1698242 0.04142263 -0.058671743
-0.00011992516 -0.15556663 -0.1540621 0.1832616 -0.16274732 -0.030217867 -0.19051929 0.05946125
-0.027973406 -0.12017103 0.058432683 -0.04765042 0.18181409 -0.022866411 0.20902383 -0.13336022
0.0018961132 0.0011214606 -0.17624846 0.18600188 -0.2116325 0.09513703 -0.21975888 0.07891772
-0.16862024 -0.22311884 0.014813835 -0.06839259 -0.13436113 -0.14965975 -0.1602236 0.106739536
0.03674088 0.194962 -0.06354397 0.19041687 -0.22064443 0.08084482 0.21222378 0.069128335
-0.08584334 -0.19355573 0.1998156 0.15290758 -0.14340067 -0.15291521 0.11645098 0.046831597
-0.007626179 -0.20425048 -0.08284586 0.11969275 0.069232196 -0.20045418 0.08531953 0.1364291
0.11888593 0.12361861 -0.13640936 -0.086986 0.10652614 0.022641493 -0.028552923 -0.13932918
0.03205875 0.07448294 0.20282091 0.18012841 -0.03536776 -0.17653683 0.117720194 0.036639374
-0.12453736 -0.08358303 -0.05428839 0.06673579 0.060488842 0.107669875 -0.15645523 0.09174687
-0.12085073 -0.18217877 -0.117265575 -0.062341373 0.11038696 -0.04875937 0.14384502 -0.0033426753
0.11272301 -0.14938499 0.16487528 -0.030285662 -0.014124976 0.073905736 -0.08274802 -0.1360505
-0.061542463 -0.1677888 0.14655207 -0.18971463 0.1990778 -0.112040184 0.16452752 -0.050392136
0.19678551 0.012852629 0.15596312 -0.15614808 -0.16914472 -0.048270002 -0.2089864 -0.18152446
0.028374765 -0.031404316 -0.0244745 0.15586196 -0.110545255 0.18884525 0.039764047 -0.102407
-0.02012888 -0.1371296 -0.13515227 -0.07494166 0.17830446 -0.013695334 0.17897004 -0.0143944975
0.12913905 0.14624333 -0.002881034 0.07698221 -0.13267472 0.12590146 0.14347981 0.19110705
-0.0047824685 -0.0024177027 0.13311024 0.036651507 -0.12708648 0.16223781 -0.18428116 0.035017043
-0.18357284 -0.12805629 0.07037263 -0.21295607 -0.08392899 -0.20433407 0.17239435 0.1555167
0.17196372 -0.14467117 0.15521838 0.031846125 0.1510559 -0.08618297 0.16975357 -0.14471969
-0.21375014 0.14674942 0.12553622 0.056386895 -0.0045317244 0.044401612 0.2021819 -0.18856972
-0.14184454 -0.009843248 -0.112741575 -0.21561123 -0.10636987 0.12631568 0.039634533 -0.055436082
-0.09860346 0.07176321 -0.15579003 0.021866154 -0.051631298 0.1336155 0.19417965 -0.08343626
-0.18863767 -0.10646817 0.12846984 -0.2091667 -0.011508727 -0.011705196 0.14520505 0.1787672
-0.21875702 0.14578591 0.12280822 -0.027160551 -0.06260463 0.016376695 0.019732501 -0.10582449
0.078489795 0.054939605 0.14274487 -0.18301888 -0.2103568 0.1315317 -0.20798267 -0.18216464
00000000: 7f9f f83d 7ed5 c0bb 396a 283e b015 cc3d
00000010: 44c7 023e 7eb1 42be 7036 46bd 2863 1abd
00000020: f0d9 5a3e 145a 8d3d 5457 eebd 2e89 c73d
00000030: 439d 97bd c267 4cbe 54d7 e0bc 4882 aabd
00000040: 1d02 28be 94e1 4e3e f07f 553d 4230 193e
00000050: d2ca bebd 902c 393e 8c01 873d d0e7 5e3e
00000060: 436b 0c3d 6174 783d 69e4 23be a2e4 38be
00000070: 9340 783d 3b92 3c3e b28b e83c ea62 fd3d
00000080: b9bd 3e3e be78 1e3e bdf6 983d 4930 073e
00000090: 8364 c33b 86f2 023e cb9e 413e 48bc 4fbe
000000a0: cedd 123e 473f 463e 7d8a c43c 0107 10bd
000000b0: b682 5dbe 65e6 2d3e c7aa 293d c851 70bd
000000c0: 5480 fbb8 dc4c 1fbe 75c2 1dbe eea8 3b3e
000000d0: 3ca7 26be 768b f7bc 7d17 43be a48d 733d
000000e0: 7c28 e5bc 3b1c f6bd 1c57 6f3d 162d 43bd
000000f0: 792d 3a3e 5752 bbbc 580a 563e 958f 08be
00000100: 0087 f83a f9fd 923a 7a7a 34be 4777 3e3e
00000110: 31b6 58be 34d7 c23d 7908 61be 9d9f a13d
00000120: c9aa 2cbe 4479 64be bab5 723c 6a11 8cbd
00000130: f795 09be 6840 19be a811 24be 429a da3d
00000140: 9b7d 163d 1ea4 473e 5723 82bd a4fc 423e
00000150: 9df0 61be f891 a53d 3151 593e 2893 8d3d
00000160: a2ce afbd 7933 46be 769c 4c3e ce93 1c3e
00000170: a0d7 12be ce95 1cbe da7d ee3d 7dd2 3f3d
00000180: 07e5 f9bb 0a27 51be 17ab a9bd 7921 f53d
00000190: 9cc9 8d3d dc43 4dbe 01bc ae3d 12b4 0b3e
000001a0: 777a f33d c12b fd3d e5ae 0bbe b725 b2bd
000001b0: 602a da3d a77a b93c d2e7 e9bc 4fac 0ebe
000001c0: 0950 033d 838a 983d 49b0 4f3e 9573 383e
000001d0: c9dd 10bd 12c6 34be 4917 f13d 2b13 163d
000001e0: 720d ffbd 942d abbd 815d 5ebd c6ac 883d
000001f0: 26c3 773d 0682 dc3d cd35 20be c8e5 bb3d
00000200: 9680 f7bd 128d 3abe ef28 f0bd ab59 7fbd
00000210: 8f12 e23d e8b7 47bd 1c4c 133e c910 5bbb
00000220: 52db e63d 61f8 18be 11d5 283e a319 f8bc
00000230: 716c 67bc e45b 973d cb77 a9bd d350 0bbe
00000240: f313 7cbd d4d0 2bbe bf11 163e 8d44 42be
00000250: 0ddb 4b3e 5375 e5bd e779 283e fc67 4ebd
00000260: 2482 493e d593 523c ccb4 1f3e 48e5 1fbe
00000270: 4634 2dbe c4b6 45bd 8800 56be 8ce1 39be
00000280: 3272 e83c d0a1 00bd bf7e c8bc 479a 1f3e
00000290: 8d65 e2bd a660 413e a0df 223d c3ba d1bd
000002a0: 52e5 a4bc b46b 0cbe 5b65 0abe 037b 99bd
000002b0: 7295 363e 6562 60bc ec43 373e e6d6 6bbc
000002c0: 073d 043e d0c0 153e bbcf 3cbb d9a8 9d3d
000002d0: e2db 07be 50ec 003e 5fec 123e 91b1 433e
000002e0: 41b6 9cbb 5272 1ebb 0d4e 083e e41f 163d
000002f0: f522 02be ab21 263e 33b4 3cbe 086e 0f3d
00000300: 85fa 3bbe 3021 03be 871f 903d 2811 5abe
00000310: f6e2 abbd f33c 51be 2588 303e c53f 1f3e
00000320: 4217 303e ae24 14be 91f1 1e3e 1571 023d
00000330: 66ae 1a3e b280 b0bd e1d3 2d3e 6631 14be
00000340: 51e1 5abe 7b45 163e 918c 003e f2f5 663d
00000350: dc7e 94bb 77de 353d c608 4f3e 6c18 41be
00000360: b23f 11be 9345 21bc 0ee5 e6bd 31c9 5cbe
00000370: 72d8 d9bd e658 013e d257 223d f210 63bd
00000380: 9cf0 c9bd 97f8 923d 6c87 1fbe a620 b33c
00000390: 577b 53bd 80d2 083e 08d7 463e a1e0 aabd
000003a0: 3c2a 41be fc0b dabd 998d 033e cc2f 56be
000003b0: 1a8f 3cbc 27c7 3fbc a2b0 143e c00e 373e
000003c0: d701 60be e748 153e e082 fb3d ce7f debc
000003d0: db36 80bd 6b28 863c 0ea6 a13c 83ba d8bd
000003e0: 42bf a03d 5a08 613d b62b 123e 4d69 3bbe
000003f0: c667 57be 3fb0 063e 69f9 54be 5e89 3abe

head.0.weight f4 [64, 64]
0.024387192 0.12431839 -0.1021117 0.08077331 0.054444492 0.066321224 -0.029963437 -0.017708968
-0.020986667 -0.01620577 0.11923688 0.053658634 0.11649857 0.059636723 -0.100552835 -0.0070990864
0.113951966 0.097402915 0.120217755 -0.0187868 0.10277069 -0.0145494845 0.051721513 -0.119389445
0.017791115 0.027530953 -0.029661775 -0.115770355 0.09563798 -0.03129793 -0.105354995 0.06913806
0.044837072 0.052327882 -0.07849593 0.12255722 0.07780852 0.020720256 -0.03279712 -0.052313298
0.081845075 0.08097518 0.009643435 0.013054521 0.004391969 0.117859975 0.09582353 0.03146662
-0.01061612 0.09185733 0.13122827 0.032086287 -0.08816584 0.03357136 -0.10365749 -0.021482345
0.011250191 0.0836459 0.09802096 -0.11047643 -0.09860239 0.105714105 0.009881403 -0.06989494
0.04712504 -0.025987841 0.06046301 0.102755055 -0.06254603 -0.03403592 -0.08761707 -0.08462526
-0.05198784 0.01805184 0.011358824 -0.009181794 0.008942094 -0.088290796 -0.121459186 0.021619894
-0.080788225 0.06516707 0.11059834 0.009934869 0.06236127 0.059068233 0.022475697 -0.008764189
0.12152481 0.009723928 0.016369514 0.10844053 -0.09598915 -0.015529852 0.11858308 -0.04747279
0.030119114 0.019405805 -0.10294756 -0.07768266 -0.057728827 -0.043354407 0.121329024 0.022494473
0.12069467 0.052979335 -0.048996687 0.041148603 -0.0496846 -0.112122044 -0.011584353 -0.079019874
-0.09684184 0.06808247 -0.07043317 0.03352143 0.052887663 0.118008465 -0.12009777 -0.016954653
-0.10798858 -0.079333365 -0.026254378 -0.091523275 -0.0060134437 -0.027251951 -0.028092943 -0.038887292
0.09888525 0.0058695315 0.05247369 0.082080215 -0.020434031 -0.001579449 0.006891339 -0.08299568
0.108703904 0.05501552 -0.10118362 0.11987834 0.09522524 0.04983535 -0.010052558 0.08522627
0.07226045 -0.08862683 -0.11757778 -0.120194644 0.027654191 0.00636345 -0.042706866 -0.015951542
-0.05379677 0.072371684 0.0051824166 -0.101257764 -0.023066236 0.10850144 0.06760703 0.03183059
0.01320323 0.05807708 -0.10465354 -0.12472653 0.01647134 0.005959957 -0.10463383 0.0919456
-0.0028170059 0.047049202 0.041369595 0.05685966 0.10197489 -0.050695717 0.054446638 0.07551522
-0.04960078 -0.09600246 0.06201477 -0.04960355 0.056209058 0.09518063 0.106228784 0.03026225
0.08056891 -0.11203358 0.061030872 -0.11640718 0.023106234 0.07580816 -0.02410162 -0.07595781
0.094550975 0.039870795 0.12526634 -0.064603366 0.07942284 -0.005731928 -0.11539656 -0.028198985
-0.013638059 -0.060204234 -0.10373282 0.060469203 0.09664807 -0.093088135 0.09950405 -0.05596914
0.120614685 -0.031916697 0.042381134 0.056327213 0.12357952 0.003298292 0.0991381 -0.1264874
0.07034439 0.0073990235 0.10582721 -0.07830322 0.099889174 0.10958005 -0.121962056 0.11791801
0.093369454 -0.08388241 -0.09835947 -0.027728671 -0.049031828 0.10689914 -0.024640491 0.0022569203
-0.08884769 0.0028961771 -0.02304458 0.027526205 0.08226925 0.11916309 -0.009423791 0.039461445
-0.05167123 -0.09308816 0.09023379 0.0007896271 -0.060896173 0.057526782 -0.0522274 0.116352834
0.014660678 0.072699666 -0.14704004 -0.0025465747 -0.04781655 0.08237529 -0.004110212 0.0028579852
00000000: a6c7 c73c a49a fe3d f01f d1bd 7a6c a53d
00000010: 3001 5f3d 6cd3 873d e275 f5bc 6612 91bc
00000020: 3bec abbc f7c1 84bc 7732 f43d 28c9 5b3d
00000030: cd96 ee3d a345 743d a5ee cdbd 749f e8bb
00000040: a65f e93d 2e7b c73d ba34 f63d c6e6 99bc
00000050: 7179 d23d f660 6ebc f0d9 533d 7482 f4bd
00000060: acbe 913c 9888 e13c 40fd f2bc 0219 edbd
00000070: d8dd c33d 4232 00bd 5cc4 d7bd 4198 8d3d
00000080: 14a7 373d c355 563d 79c2 a0bd 48ff fa3d
00000090: 135a 9f3d 87bd a93c 4656 06bd 7846 56bd
000000a0: 649e a73d 51d6 a53d 7fff 1d3c a1e2 553c
000000b0: 82ea 8f3b 9260 f13d 203f c43d 24e3 003d
000000c0: 3cef 2dbc b21f bc3d b460 063e e96c 033d
000000d0: 4b90 b4bd 1f82 093d 614a d4bd befb afbc
000000e0: b952 383c 8b4e ab3d 37bf c83d 7741 e2bd
000000f0: 0df0 c9bd a380 d83d 9ce5 213c 1425 8fbd
00000100: 3006 413d 74e4 d4bc 10a8 773d 3e71 d23d
00000110: 2218 80bd 4069 0bbd 9470 b3bd 0250 adbd
00000120: 34f1 54bd 74e1 933c 5c1a 3a3c 3c6f 16bc
00000130: dc81 123c ced1 b4bd 98bf f8bd 341c b13c
00000140: 4c74 a5bd 5076 853d 6281 e23d dcc5 223c
00000150: 886e 7f3d 88f1 713d f41e b83c ac97 0fbc
00000160: 00e2 f83d 1c51 1f3c 5c19 863c 1216 de3d
00000170: f695 c4bd ec70 7ebc b0db f23d d472 42bd
00000180: 5cbc f63c ecf8 9e3c 2cd6 d2bd 1618 9fbd
00000190: 1075 6cbd 6494 31bd 5a7b f83d 5446 b83c
000001a0: c42e f73d dc00 593d c0b0 48bd 708b 283d
000001b0: 1482 4bbd 3ea0 e5bd 4ccc 3dbc 2cd5 a1bd
000001c0: 0455 c6bd d26e 8b3d 443f 90bd c44d 093d
000001d0: bca0 583d 6cae f13d d2f5 f5bd 7ce4 8abc
000001e0: 1e29 ddbd 8879 a2bd 6c13 d7bc 8e70 bbbd
000001f0: 6c0c c5bb 7c3f dfbc 2c23 e6bc 4848 1fbd
00000200: 5a84 ca3d 3355 c03b a7ee 563d ac19 a83d
00000210: 4565 a7bc 8405 cfba bed0 e13b a4f9 a9bd
00000220: 27a0 de3d f457 613d 5c39 cfbd c682 f53d
00000230: 7305 c33d 2720 4c3d 7cb3 24bc 1c8b ae3d
00000240: 49fd 933d fc81 b5bd 9ecc f0bd 9c28 f6bd
00000250: 0b8b e23c 7d84 d03b 65ed 2ebd cfac 82bc
00000260: 005a 5cbd 9b37 943d 43d1 a93b 3b60 cfbd
00000270: 67f5 bcbc 0136 de3d 8e75 8a3d cb60 023d
00000280: 5c52 583c 3be2 6d3d 9854 d6bd 9f70 ffbd
00000290: e7ee 863c be4b c33b 434a d6bd fa4d bc3d
000002a0: 849d 38bb aab6 403d 2a73 293d ade5 683d
000002b0: 36d8 d03d 50a6 4fbd 7003 5f3d b9a7 9a3d
000002c0: 302a 4bbd f09c c4bd 3303 7e3d 182d 4bbd
000002d0: 783b 663d 10ee c23d 7a8e d93d 8ae8 f73c
000002e0: 5001 a53d dd71 e5bd 82fb 793d e366 eebd
000002f0: 4949 bd3c 4f41 9b3d c370 c5bc c58f 9bbd
00000300: f1a3 c13d 8f4f 233d d245 003e c54e 84bd
00000310: 71a8 a23d e6d2 bbbb 0855 ecbd 8f01 e7bc
00000320: 2a72 5fbc b798 76bd df71 d4bd 8eae 773d
00000330: 6cef c53d fea4 bebd c8c8 cb3d e63f 65bd
00000340: d504 f73d 15bb 02bd d797 2d3d 5db7 663d
00000350: 4217 fd3d 2828 583b eb08 cb3d ea85 01be
00000360: b810 903d 8273 f23b f0bb d83d 705d a0bd
00000370: b292 cc3d 816b e03d 3ec7 f9bd ff7e f13d
00000380: 7c38 bf3d 8aca abbd b170 c9bd 3d27 e3bc
00000390: 99d5 48bd f0ed da3d dbda c9bc d7e8 133b
000003a0: c7f5 b5bd cacd 3d3b fdc7 bcbc a37e e13c
000003b0: c87c a83d c70b f43d 3f66 1abc 53a2 213d
000003c0: 36a5 53bd 01a5 bebd 7ecc b83d fafe 4e3a
000003d0: 446e 79bd 34a1 6b3d 66ec 55bd 654a ee3d
000003e0: 5733 703c 90e3 943d aa91 16be 6fe4 26bb
000003f0: 49db 43bd 60b4 a83d f5ae 86bb 094d 3b3b

head.0.bias f4 [64]
-0.10810587 -0.059653968 -0.12772983 0.04639371 -0.025485918 -0.03066732 -0.10617928 0.018973922
0.036686033 0.007769456 -0.0627048 -0.071801156 0.023694655 -0.076079674 -0.12105699 0.02415839
0.072536014 -0.11869666 0.06675694 -0.0019549795 0.027865877 -0.114489526 -0.08617073 0.010380185
-0.019732492 -0.07836731 -0.037234955 0.057856806 -0.07828891 0.063619554 -0.08882195 -0.09651138
-0.07069369 -0.0016918379 0.029720206 0.0498349 -0.07995273 0.019007793 0.0524145 -0.093833804
-0.09153353 0.0818409 -0.111036554 0.08316696 -0.0390708 -0.02036001 -0.060185753 -0.048685666
-0.046066254 0.08318123 0.06611088 0.07211682 -0.11776209 -0.02743025 0.01721622 -0.031223869
0.048499312 -0.050704718 0.014562116 0.015174067 0.040770683 0.04147287 0.031141743 -0.007706737
00000000: 9c66 ddbd b857 74bd 9ccb 02be 5507 3e3d
00000010: d8c7 d0bc 083a fbbc 8674 d9bd 336f 9b3c
00000020: 1844 163d ec96 fe3b 606b 80bd 7c0c 93bd
00000030: 4b1b c23c a9cf 9bbd baec f7bd d1e7 c53c
00000040: c38d 943d 3c17 f3bd ddb7 883d 1d1f 00bb
00000050: fb46 e43c 7c79 eabd 487a b0bd a711 2a3c
00000060: 09a6 a1bc 0a7f a0bd ae83 18bd 42fb 6c3d
00000070: f055 a0bd f84a 823d 48e8 b5bd c2a7 c5bd
00000080: dac7 90bd a9c0 ddba ca77 f33c ae1f 4c3d
00000090: 42be a3bd 3bb6 9b3c 96b0 563d f02b c0bd
000000a0: ee75 bbbd 349c a73d 2267 e3bd 7053 aa3d
000000b0: b408 20bd 09ca a6bc 5685 76bd 9f6a 47bd
000000c0: f8af 3cbd ec5a aa3d 2465 873d fcb1 933d
000000d0: 402d f1bd 67b5 e0bc 0809 8d3c 33c9 ffbc
000000e0: 37a7 463d c0af 4fbd f195 6e3c a69c 783c
000000f0: 29ff 263d 75df 293d f81c ff3c cc88 fcbb

head.3.weight f4 [7, 64]
0.0043576946 0.016295336 0.09603985 0.08121422 -0.075767316 -0.011306965 0.088698536 0.0040435204
0.024198921 5.6019562e-05 0.10560836 -0.025420032 0.07344699 -0.06163819 -0.09413998 0.024921129
-0.03535473 0.09835033 0.05040455 0.13941108 -0.10365091 0.027719907 -0.0031116335 0.06726273
0.109835654 -0.07006075 -0.064689174 0.05982964 -0.11448866 0.02920274 0.013010692 -0.03233333
-0.102513015 -0.06378808 0.042358994 0.12758839 -0.07002662 -0.07296583 0.020656522 0.058068067
-0.042605594 0.0670386 -0.12312338 -0.06337238 -0.049439237 -0.03215012 -0.02965644 0.0004211402
0.0863308 -0.024533775 0.10097157 0.040813304 0.053819373 0.116834156 -0.01998062 -0.025400179
0.0039551645 -0.027563386 -0.019446159 -0.09092797 -0.02736435 -0.074167654 0.07440676 -0.061808825
-0.014961261 0.056076854 0.11992694 -0.06282582 -0.060880207 -0.045881234 -0.026390411 0.00033535165
-0.0034764367 0.010999616 -0.007950645 0.046919376 0.12071721 0.09006903 0.022171073 0.076197304
0.03682188 0.04199782 -0.013744018 0.090168886 0.053745326 -0.08301544 0.0797001 -0.06779496
0.009620156 -0.07371653 -0.1256883 -0.01522366 -0.017784767 -0.0118471 0.09624584 0.116150394
-0.039895386 0.083203025 -0.016875321 -0.030001774 -0.045862094 0.100988545 0.118786335 0.046626315
-0.08486335 -0.015290999 -0.017857723 -0.020828197 -0.03771667 -0.07948141 0.05884907 -0.028712044
-0.040842667 -0.069813274 -0.027874637 -0.0575572 -0.050852492 -0.03640752 -0.01753294 -0.021244552
-0.016302072 -0.06583288 0.06702769 0.043224122 -0.03475752 -0.1078409 -0.0265633 0.01389752
0.026329424 0.007187506 0.09718945 0.0705837 0.02004686 -0.092313126 -0.10996978 -0.015380796
-0.040455602 -0.056700945 -0.11052495 0.03825119 -0.032379504 0.051537104 -0.0719956 -0.032630876
0.00014887116 0.04139635 -0.06562573 -0.08287269 0.0076493644 0.027877785 0.010376137 0.023551155
-0.09274713 0.02957608 -0.088331796 -0.02499089 -0.09746279 -0.036836233 0.10709211 -0.10853924
0.040565625 -0.13207722 -0.08120254 0.0817039 0.09544481 0.10423991 0.007891574 -0.015309121
0.09036052 -0.08555114 0.0763309 -0.006791886 -0.06470135 0.09054107 -0.060357068 -0.0154573405
0.038959175 -0.071231216 -0.08793095 -0.09475737 0.05453497 -0.07886549 0.07969652 0.0597558
-0.065431505 -0.035754383 -0.11625946 -0.108069696 -0.014539924 -0.12262979 -0.06202544 0.09115529
0.003935333 0.064994544 -0.024897508 -0.070524976 0.07139869 0.10515825 -0.019776486 0.095602274
0.019320356 0.09448367 0.08563319 -0.11122514 0.06431814 0.032872945 0.054815844 -0.081728004
-0.06491498 0.12496239 -0.044173155 -0.04490328 -0.0049744565 -0.1088779 -0.09927139 -0.046998512
-0.102536395 0.10809236 0.09773503 -0.04673283 -0.020214848 -0.057667702 0.09760146 0.06656897
-0.09387648 -0.098519765 -0.022076413 -0.018835427 0.070032716 0.09786878 0.0782806 0.0064030495
-0.019296043 -0.041490767 0.058926746 0.10588173 -0.06635332 0.011745171 0.111394905 -0.023353595
0.005260749 -0.056857 -0.040690232 -0.094460905 -0.07196845 -0.10629559 -0.07159352 -0.04392889
-0.024901431 0.099178925 0.11509944 0.09025912 -0.06594653 0.09757594 -0.024412142 0.019715779
00000000: feca 8e3b cc7d 853c 8ab0 c43d a453 a63d
00000010: e52b 9bbd d940 39bc 94a7 b53d 827f 843b
00000020: d13c c63c 8cf6 6a38 3249 d83d ac3d d0bc
00000030: 606b 963d 5478 7cbd 76cc c0bd 6527 cc3c
00000040: 1fd0 10bd e66b c93d 0075 4e3d c7c1 0e3e
00000050: ee46 d4bd dc14 e33c 8cec 4bbb 0bc1 893d
00000060: 84f1 e03d 037c 8fbd c27b 84bd ed0f 753d
00000070: 0879 eabd 963a ef3c cc2a 553c f46f 04bd
00000080: 58f2 d1bd 53a3 82bd a080 2d3d 88a6 023e
00000090: 1e6a 8fbd 1c6f 95bd de37 a93c c8d8 6d3d
000000a0: 3483 2ebd 894b 893d 1c28 fcbd 61c9 81bd
000000b0: cc80 4abd d8af 03bd 10f2 f2bc 7bcc dc39
000000c0: 34ce b03d 0efb c8bc 2fca ce3d da2b 273d
000000d0: b471 5c3d bf46 ef3d 66ae a3bc 0914 d0bc
000000e0: 539a 813b 9ccc e1bc 8d4d 9fbc 7238 babd
000000f0: 342b e0bc 36e5 97bd 9262 983d 402b 7dbd
00000100: 1420 75bc d8b0 653d 419c f53d d3aa 80bd
00000110: 865d 79bd f6ed 3bbd b430 d8bc 23d2 af39
00000120: eed4 63bb bc37 343c 6c43 02bc 882e 403d
00000130: 963a f73d 1d76 b83d 1ca0 b53c 550d 9c3d
00000140: 8ad2 163d e805 2c3d 972e 61bc 77aa b83d
00000150: 0f24 5c3d 0004 aabd ce39 a33d 16d8 8abd
00000160: dc9d 1d3c b1f8 96bd 6fb4 00be a86c 79bc
00000170: 5cb1 91bc 571a 42bc 8a1c c53d 42e0 ed3d
00000180: 5869 23bd 5966 aa3d 1d3e 8abc 48c6 f5bc
00000190: e4d9 3bbd 15d3 ce3d 4046 f33d 3cfb 3e3d
000001a0: d6cc adbd 1987 7abc 5c4a 92bc e59f aabc
000001b0: cc7c 1abd 26c7 a2bd b90b 713d 8535 ebbc
000001c0: a44a 27bd 43fa 8ebd 5a59 e4bc 19c1 6bbd
000001d0: b44a 50bd 0d20 15bd 3da1 8fbc 0e09 aebc
000001e0: ec8b 85bc 64d3 86bd d045 893d c70b 313d
000001f0: e75d 0ebd b1db dcbd 479b d9bc 6cb2 633c
00000200: ceb0 d73c 2c85 eb3b 430b c73d 308e 903d
00000210: 5039 a43c aa0e bdbd d637 e1bd bcff 7bbc
00000220: c6b4 25bd 403f 68bd e85a e2bd 48ad 1c3d
00000230: 5fa0 04bd 9218 533d 6e72 93bd f4a7 05bd
00000240: 4c1a 1c39 388f 293d c866 86bd 28b9 a9bd
00000250: 85a7 fa3b f45f e43c ac00 2a3c 5aee c03c
00000260: 35f2 bdbd 8949 f23c 4de7 b4bd b2b9 ccbc
00000270: 929a c7bd 97e1 16bd 1c53 db3d d249 debd
00000280: 2428 263d 403f 07be 844d a6bd 6054 a73d
00000290: 9278 c33d bc7b d53d a94b 013c 1cd3 7abc
000002a0: f00e b93d 7035 afbd 6053 9c3d 788e debb
000002b0: 2482 84bd 996d b93d f938 77bd c940 7dbc
000002c0: a893 1f3d ace1 91bd 2415 b4bd 2710 c2bd
000002d0: 1060 5f3d 3b84 a1bd ee37 a33d 7fc2 743d
000002e0: f400 86bd 3073 12bd 7119 eebd a553 ddbd
000002f0: dd38 6ebc 5425 fbbd 630e 7ebd a0af ba3d
00000300: f7f3 803b dc1b 853d dcf5 cbbc 666f 90bd
00000310: 7a39 923d 355d d73d 4c02 a2bc 20cb c33d
00000320: b945 9e3c a880 c13d 7460 af3d 02ca e3bd
00000330: 3bb9 833d c8a5 063d 9486 603d 0361 a7bd
00000340: 25f2 84bd 48ec ff3d e9ee 34bd 80ec 37bd
00000350: c400 a3bb 60fb debd cc4e cbbd 8381 40bd
00000360: 9afe d1bd 875f dd3d 4e29 c83d ed6a 3fbd
00000370: 9c99 a5bc f834 6cbd 46e3 c73d 5055 883d
00000380: 5042 c0bd bbc4 c9bd 98d9 b4bc c14c 9abc
00000390: 506d 8f3d 6d6f c83d 9451 a03d acd0 d13b
000003a0: bc12 9ebc 39f2 29bd 2c5d 713d 85d8 d83d
000003b0: 40e4 87bd d16e 403c 0323 e43d 0a50 bfbc
000003c0: 5c62 ac3b e3e2 68bd cdaa 26bd b874 c1bd
000003d0: 3264 93bd 81b1 d9bd a09f 92bd c8ee 33bd
000003e0: 16fe cbbc 521e cb3d 41b9 eb3d c6d9 b83d
000003f0: f90e 87bd e5d5 c73d f9fb c7bc fc82 a13c

head.3.bias f4 [7]
-0.013406783 0.0041016587 0.012486636 0.010298477 0.0045012827 0.009008556 -0.008248562
00000000: 20a8 5bbc 3567 863b bf94 4c3c f1ba 283c
00000010: 7f7f 933b 9f98 133c fa24 07bc
